SimGNN-2차/saved_student_models/batch64_epoch200_GCN2_13.pth (torch, 98948 bytes, 10 tensors)

convolution_1.bias f4 [128]
00000000: eb7e 16bf d241 cfbe fdfa 06bf f933 dbbe
00000010: 986b e4be a9ac 4ebf cdc0 36bf 10db cabe
00000020: 4771 23bf f24a 52be 7f3e d1be ece0 8bbe
00000030: 6ad3 5abf 59a9 91b9 3ba2 dabe 2188 d5be
00000040: 31bd cfbe 48e8 b2be 45f2 bbbd 6a52 cdbe
00000050: 0fb5 2cbf b869 9dbe 153a c4be ff15 cfbc
00000060: a7d2 9ebe 2f9a 59be c94e e43b 0379 8cbe
00000070: 93b4 c3be 0170 a5be 946a febe d4e3 09bf
00000080: 5cfe 09bc fb91 17bf 0c39 17bf 59ed 8ebe
00000090: 8515 97bd 13f5 c0be 0835 debe 33f9 a0be
000000a0: 7d20 dabe b0b5 58bf adf0 33be 0662 1fbc
000000b0: a1b1 9cbe b7a7 07bf c378 40bf a228 78be
000000c0: af18 bdbe 5327 bdbe e5a4 e2be e8a3 4cbe
000000d0: bca5 66be 340f 05bf 78f2 3ebe e734 48be
000000e0: 896e abbd be08 24bf f116 a8be 5760 8abd
000000f0: 4bc4 74be aa33 d5bd 7216 93be 6093 d4be
00000100: 5006 24bf 7b1d 5ebe a39d 8abe 6893 23bf
00000110: f245 05bf 271e aabc 81b5 96be 4e80 c9be
00000120: 9a99 a7be 49cd b0be e08e 7dbd 47d4 f2be
00000130: 0f02 86bd 2d4a 11bf a6b8 90be 0d37 65bd
00000140: 6867 29be af4e 8fbe ffe2 f6be 3326 03bf
00000150: c12f 74be f15d e6be 7fcd 0dbf 4676 c7be
00000160: 86e9 02bf e842 64bf c3ae f4be 3a0a 14bd
00000170: 2d0b 06bf 72e3 d2be 0e30 26be 15df 78be
00000180: bf72 aabe 871c dabe 784d 1dbf b104 18bf
00000190: 553f 219f a2ba 2cbf ecf2 24bc 36ce e0be
000001a0: c8ed bcbe c83b a2be 4413 a4be 584c e9be
000001b0: dc4e e2be 3a3b e3be 0b03 32bf 769a 81bd
000001c0: 85a1 d2be 0988 72be 48a9 24be 2f6f a2b6
000001d0: 3315 d5be c6eb bfbe 9b67 edbe e41c 1cbf
000001e0: 62b5 b8be f20c 4bbf 274f 6abe 0a21 e6be
000001f0: 315c 95be 6622 8ebe e21d 02bf df58 11bf
-0.5878741 -0.40479904 -0.5272673 -0.4281309 -0.44613338 -0.8073221 -0.7138794 -0.39620256
-0.6384472 -0.20536402 -0.40867993 -0.2732004 -0.8547884 -0.0002778273 -0.42701897 -0.4170542
-0.4057403 -0.34942842 -0.091770686 -0.4010194 -0.67463773 -0.3074472 -0.38325563 -0.025279043
-0.3102009 -0.21250223 0.0069673997 -0.27436075 -0.38223705 -0.32312015 -0.49690688 -0.53863263
-0.00842246 -0.59207124 -0.5907142 -0.27915457 -0.073771514 -0.37686977 -0.43399835 -0.31440124
-0.42602912 -0.84652233 -0.1757228 -0.00972796 -0.3060427 -0.5299029 -0.7518427 -0.2423425
-0.36932895 -0.36944064 -0.4426643 -0.199844 -0.2252416 -0.51976323 -0.18647182 -0.1955143
-0.08370692 -0.6407584 -0.32830003 -0.067566566 -0.23903005 -0.10410245 -0.28728062 -0.41518688
-0.6407213 -0.21690933 -0.27073392 -0.638968 -0.52059853 -0.02076633 -0.29435351 -0.393557
-0.32734376 -0.3453162 -0.061903834 -0.4742758 -0.065433614 -0.5675381 -0.28265876 -0.055960704
-0.16543353 -0.27989718 -0.4822006 -0.5123016 -0.23846342 -0.44993547 -0.5539169 -0.38957423
-0.5113758 -0.8916459 -0.47789583 -0.036142565 -0.523608 -0.41189152 -0.16229269 -0.24303849
-0.3329067 -0.4259989 -0.6144633 -0.5938216 -3.4145463e-20 -0.6747228 -0.010067683 -0.43907326
-0.36900163 -0.31686234 -0.32045949 -0.45566058 -0.4420079 -0.44381124 -0.69535893 -0.06328289
-0.41138855 -0.23684706 -0.160802 -4.8409197e-06 -0.41617736 -0.37484568 -0.46368107 -0.60981584
-0.36075884 -0.7931663 -0.22881757 -0.44947082 -0.291719 -0.2776062 -0.5082685 -0.5677623

convolution_1.lin.weight f4 [128, 15]
00000000: 5ee5 59be bddb 723e 1eb0 5a3d f4b4 2dbf
00000010: 1bdb f9be b4a3 3cbf 6c4c d83d 4976 ab3e
00000020: 4c13 583f 5278 c8be 6b1a 423f 9e4c fa3e
00000030: db79 7abf ccf9 853f 4fee f4be d12d 05bf
00000040: 2140 28be 3ed4 463f 1e78 b9be cd10 5c3f
00000050: a6b8 663e 6a29 e33c 0323 c1be b4ee cd3e
00000060: 166c 0abd a321 87be 0b39 d83e 2936 fe3e
00000070: f1d9 8bbf dfa9 893f 2ea1 ef3e cd1d 103e
00000080: 154d 293e 7546 663e 0a76 09be 529d 54be
00000090: 700f 283e c3e2 9dbe 861c 023f 54f6 a03e
000000a0: 3fef ebbe 5e74 99be 0db7 aebd 950c 663f
000000b0: c7e4 953d 8354 ee3e a14d 65bf 8991 7bbf
000000c0: 5372 a63e 0441 25bf a473 0ebf 6605 a43d
000000d0: 659b 8cbf b1d2 af3f d162 4d3f 7c8d dfbd
000000e0: 301e 453e df1e ad3f 21f8 92bf 527d a8be
000000f0: b744 673d 506b 90be 0380 3c3f 1ebe 043f
00000100: 1812 97be 445d 88be 7eaf 3e3e ecad 833f
00000110: eb40 3ebf 106f 383e 4511 393f f9c0 013f
00000120: 61f2 313f 7a9a 893e a0bb 713f aed2 8a3f
00000130: 3e8f 813f 7a12 2c3f 537c 933e 0bea 05bf
00000140: 7c24 363f 730d a33e 2ade cf3f e358 823e
00000150: c28d 3f3f 5eff e93e 5a06 423f 52c4 81bf
00000160: 5cba 89be 8bf6 dbbe 815a 073f fc0f 6c3e
00000170: 3dd6 5fbf 3738 bb3e ca9a 383f ce43 563f
00000180: a051 ec3e 88c2 683f 8146 2f3f ab27 d53e
00000190: 9ed4 a5be 9387 273f 77ac 7bbf 26b7 b73e
000001a0: a136 e6be 054e 36bf f2e0 3bbf 4bcb 363e
000001b0: d8fb 46be 5030 913e e25e dabe bff5 4b3f
000001c0: 9b96 87be 543b fc3d 0f99 4c3e 9ef9 84bf
000001d0: e957 47be bf38 28bd b298 323f c9b1 0f3e
000001e0: a4c8 b83e ae7a 183f 4f10 653f 4941 133f
000001f0: 70ac 7fbe 9769 07bf 2d67 7bbd 5ffa a0be
00000200: ebb6 573f fba5 afbe 13d1 e83e 5b17 9cbe
00000210: ab4c df3d 7100 4c3f 7b6b 863e 4ebb 10be
00000220: 575d c53e d222 babc 2a08 653d ad7f 383f
00000230: 5abb 69bf 1cbb 0bbf 525d 15bf 3978 383f
00000240: dc45 c33e 643f 853e 541e a0bf 6e3f 033f
00000250: f835 a4bf 7fc1 21bf f144 62bf 1a84 fb3e
00000260: eed4 a4be 329c 833e 3644 86bf c2e3 42bd
00000270: 94e7 d83d 1168 c93f 2ffd d43e 46f3 60bf
00000280: 5bb7 4436 1554 62bf 3fe9 9e3f 5874 c7bf
00000290: 41f8 78be f676 a4ba 4962 6b3f 0e5a e3bd
000002a0: 740f 90bc a233 73be dbbb 5abb 78b1 46be
000002b0: 2e61 debe a8e6 2fbe 0cc3 903e 5a03 66be
000002c0: 9b7e c8be 3d79 393f 5c4c 5d3d 1740 51be
000002d0: d852 653d 22f4 2e40 288c 48bd c20f ec3d
000002e0: 5cbb 4dbf 64e1 84bf 52a6 84bf cde2 8ebf
000002f0: 9541 ce3d e135 7aae 72a0 b13e 3382 85bf
00000300: 2c90 09bf c73c d13e 8d93 6f3e 501f 0080
00000310: c66d 0080 7d21 0000 b078 139f 7d1f 0000
00000320: 0604 0000 0416 97a5 7d28 0080 b111 0000
00000330: b024 4e90 6605 0080 5700 0000 110f 0080
00000340: 479c ab1e b11e 0000 b17b 1fbf f839 b13f
00000350: de03 40bf de3d c9bd c289 cfbe 9a13 e93e
00000360: 29da 00bf 955b cb3d 081e 163d 09d0 0e3f
00000370: fa94 643d c0b8 273e 6f2f d6be 1648 363e
00000380: 7560 e33d ca2a 15be cc50 7bbe ce02 a3be
00000390: 9b39 473f 713f 5e3f 1cb5 06bf b2bf 2c3d
000003a0: 32db f7bd 3c6b 27bf 50ee 413e 740a de3e
000003b0: 7792 d13e 3051 4d3f 61c2 aabf e380 11a3
000003c0: 0630 ddbc ec93 f1be baf0 a0be edad 883d
000003d0: 3011 3fbd 3ad9 ebbe a1ca 143f 2bee 713e
000003e0: 9440 26bf bb3b 47bd a06b 7dbe 2f85 3e3f
000003f0: 0c09 72be 94d5 e23e 7639 0000 3448 a53f
-0.21278903 0.23716636 0.053390615 -0.6785424 -0.48799977 -0.7368729 0.10561451 0.33488682
0.84404445 -0.39154297 0.7582156 0.4888658 -0.97842187 1.0466857 -0.47838065 -0.52023035
-0.16430713 0.77667606 -0.36224455 0.85963136 0.22531375 0.027729709 -0.37722024 0.4022118
-0.033794485 -0.2639285 0.4223102 0.49650696 -1.0925885 1.0754966 0.46802658 0.14073868
0.1653331 0.22487815 -0.13423935 -0.20763138 0.16412139 -0.30837068 0.50824773 0.31437933
-0.46080968 -0.29971594 -0.08531008 0.8986295 0.073190264 0.46548852 -0.8957158 -0.98268944
0.32509097 -0.6455233 -0.55645204 0.08008842 -1.0984923 1.3736173 0.80228907 -0.10915658
0.19249797 1.3525046 -1.1481973 -0.32908112 0.056462016 -0.28206873 0.7363283 0.51852596
-0.29505992 -0.26633656 0.18621632 1.0287452 -0.74317807 0.18011117 0.72291976 0.5068508
0.69510466 0.2687567 0.9442692 1.0845544 1.0121839 0.67215693 0.2880579 -0.52310246
0.7114942 0.31846198 1.6239674 0.2545844 0.7482568 0.45702642 0.7579094 -1.0138037
-0.26899993 -0.42961535 0.52872473 0.23052973 -0.87436277 0.36566326 0.7211119 0.8369721
0.46156025 0.9092183 0.68466955 0.41631827 -0.32388777 0.65441245 -0.98310035 0.3588192
-0.44963554 -0.712128 -0.73390114 0.17850988 -0.19432008 0.28357172 -0.42650515 0.79671854
-0.2648209 0.123160034 0.19980262 -1.0388677 -0.19467129 -0.041069742 0.69764245 0.14032663
0.36090577 0.59562194 0.8947801 0.5752149 -0.24968123 -0.5289549 -0.061377693 -0.31441018
0.84263486 -0.3430632 0.4547201 -0.3048657 0.10903295 0.79688174 0.26253876 -0.14133951
0.38547775 -0.022721682 0.05591599 0.7206982 -0.913015 -0.5458238 -0.5834552 0.72058445
0.38139236 0.26024926 -1.2509255 0.5126866 -1.282897 -0.63185877 -0.88386446 0.49124223
-0.32193702 0.25705105 -1.0489566 -0.047580488 0.10591045 1.5734884 0.41599414 -0.87871206
2.9313003e-06 -0.8840955 1.2414931 -1.558238 -0.24313451 -0.001254766 0.91946846 -0.11101161
-0.017585494 -0.23750165 -0.003337613 -0.19403636 -0.43433517 -0.17177832 0.2827381 -0.22462216
-0.39159092 0.7245062 0.0540279 -0.20434605 0.05598721 2.7336507 -0.04896179 0.11526443
-0.8036401 -1.0381284 -1.0363257 -1.1162964 0.100711025 -5.6891273e-11 0.34692723 -1.0430359
-0.53735614 0.40866682 0.2339613 -1.1233e-41 -3.9379e-41 1.2013e-41 -3.122829e-20 1.1296e-41
1.443e-42 -2.6209243e-16 -1.4524e-41 6.346e-42 -4.06546e-29 -1.937e-42 1.22e-43 -5.405e-42
1.8169964e-20 1.101e-41 -0.62298113 1.3845816 -0.750059 -0.09826253 -0.40534788 0.45522767
-0.50332886 0.09929577 0.036649734 0.55786186 0.055806138 0.1637907 -0.41833064 0.17800936
0.11102382 -0.14567104 -0.2454254 -0.31838077 0.77822274 0.86815554 -0.526201 0.042175002
-0.12102355 -0.65398 0.18938565 0.4336735 0.40932056 0.8020201 -1.334057 -7.8877586e-18
-0.027000438 -0.47183168 -0.3143366 0.06673799 -0.04664725 -0.46064168 0.5812169 0.2362601
-0.6494229 -0.048640948 -0.24748087 0.7442197 -0.23636264 0.44303572 2.0613e-41 1.291266

convolution_2.bias f4 [32]
00000000: 869a 8e3c 3614 0fbc af67 3c3c 0bd8 933c
00000010: 1fec 9dbb 0a9d 1a3c 636a 21ba e8ba 8abc
00000020: 57fa 52bb 2d4f 5abc cba8 42bb bd12 b3bd
00000030: df9b b5bd 60e6 133c f333 8c3e 8953 0f3b
00000040: 91ef 5fbc f29f 163c d58e 82bd ca7b b7bb
00000050: 9766 313b 2ba8 9c3b 0021 863c 4782 a4bb
00000060: 6252 663c 63a5 03c0 e579 90bb b067 6d3f
00000070: 27a7 a33b d13b a8bc 034c 52bb 0e69 c53b
0.017407667 -0.008732846 0.0114993295 0.018047353 -0.0048194076 0.009436855 -0.00061575155 -0.016934827
-0.0032192671 -0.013324541 -0.002970266 -0.087438084 -0.08867621 0.009027094 0.27383384 0.002186986
-0.013667957 0.009193407 -0.06374899 -0.0055994736 0.0027069205 0.0047807894 0.016373158 -0.005020413
0.0140577275 -2.0569694 -0.004409062 0.9273634 0.0049942913 -0.020536335 -0.0032088764 0.0060244864

convolution_2.lin.weight f4 [32, 128]
00000000: bb64 9bbc 07b0 193d 73d9 133d 45ed 283d
00000010: b616 3a3d 8864 ff3c 29c1 8cbb d40b 073d
00000020: d943 3e3d 7fdb 083d d9e0 00bd e478 ba3c
00000030: c8c7 6f3d 74fa e7b3 68ce a03d 89bc 893d
00000040: 222d 5a3b 6b73 293d b704 8338 e905 503c
00000050: 7014 283c f1b7 06bd 62c5 13bd ef09 63bd
00000060: 922c 163d 87f7 363d 83e6 f53c 070c 4a3d
00000070: 8937 8d3a b830 5f3c a2c4 2a3d 3e19 39bc
00000080: 0102 0db7 e891 d83c efb4 9f3d a9a7 643d
00000090: 5635 91bc 4d45 adbc 342e bb3d 89e3 91bd
000000a0: 777f f63c 6397 2c3d f43b 73bc 8e9d 54b4
000000b0: dfec cc3d 84ff a5bc cf04 413d 638c a6bc
000000c0: 3c36 523d c3c6 733d f30b 35bd 36d4 b9bb
000000d0: 8144 7f3d 9ac7 02bd 4115 173c 3784 08bd
000000e0: 9fd8 0d3d 07c5 413d f69c 76bc cc62 1d3c
000000f0: 3e04 0b3d e45f 523d 1cfc 60bd f584 0c3d
00000100: 1cc9 1dbd 7e47 9b3c faef ca3b e23f 80ba
00000110: 42d5 f6bc 3eef 8fbd fcc1 aabc 7ad7 e03c
00000120: 051f 93bc bf12 343d 2242 edbc e1a1 1bbd
00000130: 0777 823d a817 77bc fabd 3c3d 9efa 103e
00000140: ab8b 483d 6fcd b73c a26b 733b b273 e83c
00000150: 2275 993c 8b9c 083c 4158 77bd 3458 2dbd
00000160: 4350 443d 9256 2a3d 631d 763d 9b49 cabd
00000170: 5641 86bc 267b 5cbc b546 913c 39b1 00ba
00000180: 890c 18bd 46e5 9f3d b636 573a 94bc b2bc
00000190: 191e 0000 016d 3b3d 518f 6eb8 d792 f43b
000001a0: d343 a9bb a21a ef3c faa1 97bd 844b 1c3d
000001b0: f265 0e3d 714d a93b ce73 d6bc bbc5 7dbd
000001c0: 2451 713d 95d7 363d 70cf 6e3c 6309 0080
000001d0: fbfa 373d 7dc5 8e3d e245 cf3b f4f2 3d3c
000001e0: 4def 503d 8fa0 53bb 58b7 2abd a506 1abc
000001f0: eb37 2fbd 487a b2bb c450 103c 0ddd fd3c
00000200: 4a36 aa3c 9cf9 e93b 5907 15bd c634 9ebd
00000210: 34e2 f3bb 7f02 273d 3502 d43c 0d2f 03bc
00000220: 84f9 b8bc c6ff 733d 6570 863d 76bc 63bc
00000230: f169 8a3d 25a3 ce2d 0f6f 61b9 1a34 29bd
00000240: 75be af3c ef66 4bbb 9540 0b3d 722f 543d
00000250: 1cd4 503c 246d 1d3c 910b 07bc 6c89 493d
00000260: c29a de3c 8d02 823c 7a05 9fbc 0c05 7ebd
00000270: c401 f1bc 66b3 523d e94b e4bc 5e9b 98bb
00000280: 9ea7 0836 8401 3c3d 4191 93bb b4c5 85bc
00000290: 1775 8d3c 9f96 db3b 52cb d3bc 3a1c 093d
000002a0: 4950 8b3b 13aa 293d e107 cf3c 1375 99b5
000002b0: d06b cebb 7688 7bbc b496 033d 2029 2fbd
000002c0: 40ac 43bc 3390 043d 014d ea3c 64bd 203d
000002d0: 98bb 4cbd c702 f13c 1a0a ebbc 5f4b 373c
000002e0: 0aff 963c bac0 593b 8033 aebb ffa8 0a3d
000002f0: 4af3 85bc 380d 0b3a 037b a4bc 9890 9a3c
00000300: 4e8c 6fbc 6222 f239 7b07 a03c b0f1 e63b
00000310: d567 1a3b 4e2f dd3d af2e 7c3d f6b5 a2bc
00000320: 9371 d7bd 4fe8 043d 7f9f 06bd 73b2 8f3b
00000330: 8395 133d daf9 80bd b853 c83c f77f 81bc
00000340: 9708 903b 4535 7b3d 20af 1ebc da6e 44bc
00000350: 1318 0d3c ddfb 0cbc 5f9c 393d a875 eabc
00000360: d33f 7ebc 382f 2e3d 34c0 003d ebcf dc3d
00000370: 68ce bfbc 65be 903d ab8e 25bb 3297 d43c
00000380: 2c0f 6d3d 876b 2ebc 5802 e33b 165f bb3c
00000390: 7b17 0000 12f4 b2bb ab24 9a38 b97d fdbc
000003a0: 8bc2 113d baa0 c93c fe8a 0d3d d844 e3bb
000003b0: 3d9c 52bc 95df a7bd 594e c83a e5b0 62bc
000003c0: 29d5 b3bb aeaa 4bbd 25e6 c3bc ff12 0080
000003d0: d7a0 b1bc f375 06bc 6f16 e93c e8d5 d4bc
000003e0: e61b 003d c327 183d 0302 003d 22da 4f3b
000003f0: 81be 33bd 53cf 8b3c a47c e7bc e49f 073d
-0.01896893 0.03752139 0.036096048 0.041241903 0.045431815 0.031175867 -0.0042954874 0.032970265
0.046451423 0.033412453 -0.03146443 0.022762723 0.058540136 -1.0802333e-07 0.07851869 0.06725413
0.0033291061 0.041369837 6.247445e-05 0.012696722 0.010258779 -0.032890264 -0.03607691 -0.055429395
0.0366636 0.044669654 0.030017143 0.049327876 0.0010773997 0.013622455 0.04169143 -0.011297522
-8.4047215e-06 0.026436761 0.07798182 0.055823956 -0.017725628 -0.02115121 0.09139672 -0.07123477
0.030090077 0.04213656 -0.014845837 -1.9801357e-07 0.10006117 -0.02026344 0.047123726 -0.020330613
0.051321253 0.059515726 -0.04420085 -0.0056710495 0.06232119 -0.031928636 0.009221376 -0.033329215
0.034630414 0.04730704 -0.015052071 0.009606075 0.033939593 0.05136098 -0.05492793 0.034306485
-0.03852187 0.018954989 0.006193158 -0.0009784664 -0.030130986 -0.07028054 -0.020844452 0.027446497
-0.017959127 0.04396319 -0.028962199 -0.037996177 0.06370359 -0.015081324 0.046079613 0.14158103
0.048961323 0.022436826 0.0037143012 0.02837548 0.018732611 0.008338104 -0.0603869 -0.042320445
0.047928106 0.041586466 0.06008662 -0.098773204 -0.016388576 -0.013457095 0.017733911 -0.0004909221
-0.03712133 0.07807402 0.00082097517 -0.021818437 1.0797e-41 0.04575825 -5.6877096e-05 0.0074637937
-0.005165556 0.029187504 -0.074039415 0.038157955 0.03476519 0.0051667024 -0.026178267 -0.06195615
0.058915272 0.04463919 0.014575824 -3.367e-42 0.044917088 0.06971262 0.0063254694 0.011593569
0.051009465 -0.0032291745 -0.041678756 -0.009400998 -0.042777937 -0.005446706 0.0088083185 0.030989194
0.02077784 0.0071403515 -0.03638396 -0.077249095 -0.007442737 0.040773865 0.025879959 -0.008006823
-0.022579916 0.059570096 0.06564406 -0.013899913 0.06758488 2.349194e-11 -0.00021499045 -0.041309454
0.021453122 -0.0031036695 0.033997137 0.05180306 0.012745883 0.009608541 -0.008242504 0.04920332
0.027173404 0.015870357 -0.019411791 -0.06201653 -0.029419787 0.05144062 -0.027868228 -0.004657193
2.0363145e-06 0.045899883 -0.0045033996 -0.016329624 0.017267747 0.006701305 -0.025853787 0.033474185
0.004251514 0.04142196 0.025272312 -1.1433461e-06 -0.0062994733 -0.015352359 0.032126144 -0.04276383
-0.011942923 0.03236408 0.028601171 0.039243117 -0.04998359 0.02942027 -0.02869134 0.011187403
0.018432159 0.0033226446 -0.005316198 0.033852573 -0.01635136 0.0005304399 -0.020078188 0.018867776
-0.014620854 0.00046183454 0.019534817 0.0070478544 0.0023560424 0.10800038 0.06156796 -0.019862156
-0.105197094 0.03244811 -0.03286695 0.0043852865 0.036031257 -0.062976554 0.024453983 -0.015808089
0.0043955552 0.0613301 -0.009685308 -0.01198932 0.008611697 -0.008604971 0.045315143 -0.028620556
-0.015518147 0.0425255 0.0314333 0.10781845 -0.023413852 0.07067565 -0.0025262039 0.025951002
0.057875797 -0.010645754 0.0069277696 0.022872489 8.423e-42 -0.0054612244 7.350122e-05 -0.030943738
0.03558592 0.024612773 0.03455638 -0.006935697 -0.012854633 -0.08196942 0.0015282138 -0.01383612
-0.005488057 -0.04972332 -0.023913452 -6.815e-42 -0.02168314 -0.008206832 0.02845308 -0.025980905
0.031276606 0.037147295 0.03125192 0.003171571 -0.04388285 0.017066633 -0.028257675 0.033111468

tensor_network.weight_matrix f4 [32, 32, 16]
00000000: 925d 32bd 7ecc 7a3d 7681 353d 3897 493c
00000010: 202d 3dbc e20c 92bd a049 1dbb b72b 853d
00000020: 62e9 373d 9cf3 123d e801 3abc 60f5 133c
00000030: 5add 273d 0160 33bd ef1a 0dbd 643e 50bd
00000040: f643 b3bc 75f6 96bd 82c3 5bbd 84de cbbc
00000050: e21f 2fbd 827e 69bd 8054 69bb 0ed0 353d
00000060: 036a 92bd 9fa7 8a3d 9164 933d df0f 893d
00000070: fcbd fc3c b8c3 423d a2b3 2b3d ea1d edbc
00000080: b02b 303d d9d9 36bd bcad 2cbd ee8f 413d
00000090: 56bb 0a3d 4ac4 723d 63a6 4cbd 806a 1f3c
000000a0: e022 3fbb 5d32 21bd 243b 68bc 54f1 393d
000000b0: 9001 c73c a8e4 eabc 9832 35bc e0a6 e83b
000000c0: cca2 003d d8ad 1bbc a851 963c 9bab 9cbd
000000d0: 762e 72bd 3468 4ebd 8c28 d7bc bdb0 79bd
000000e0: 8829 bf3c bc81 a8bc d4c6 be3c d4a6 933c
000000f0: b88d 7bbd 38a5 18bd 8087 64ba 1d48 843d
00000100: 005c 253a 106a ff3b ae5c f0bc 9419 e8bc
00000110: 5ef9 663d 72db 5e3d fa5a 5ebd 90a7 a03b
00000120: 4c11 a73c af7a 8a3d e0c2 143d 8a16 91bd
00000130: c064 8c3b bd1b 803d 202c 4bbc b298 5e3d
00000140: 7dd8 03bd c150 3cbd d0ee c53c 1413 c63c
00000150: 887e ad3c 2459 da3c c468 4abd 7293 7b3d
00000160: 9507 1fbd 250c 1abd 4ab7 9fbc b42e 973c
00000170: c306 993d 0ed7 1b3d 88ba 69bd c6cd 96bd
00000180: 2c95 033d 7e69 6a3d 66c0 7d3d d4c2 c83c
00000190: f466 a73c 120d 613d 0c57 193d bb75 853d
000001a0: 4074 5bbb 907a 01bc 0cee 943c f7b2 973d
000001b0: 183f 5ebc 84d7 433d e8d8 f03c 986b 023c
000001c0: 7660 92bd 614f 8b3d 3457 78bc 38dc 1b3d
000001d0: 4dda 58bd ed28 49bd 7ab7 fbbc 24f2 a6bc
000001e0: a033 45bb f3bf 893d 88e5 543c 747f a83c
000001f0: 0846 3f3c b835 8bbd 283f a93c 78f4 1e3d
00000200: 08fc 5ebd 2ad7 763d f84d 603c aa92 78bd
00000210: 3c76 e43c 5017 dcbb 1387 933d ce2d 553d
00000220: 0e78 123d f091 f3bb 0436 dc3c a7ba 18bd
00000230: 860f 7a3d a07e c83b a2f3 1fbd 51d1 8d3d
00000240: 9c7c 6dbc d2e7 683d 6963 8a3d d566 45bd
00000250: 4d3e 9a3d e0ab 07bc 2026 d5bb 9d0f 933d
00000260: 80dd 923a d64e 663d cb06 88bd 86ca 4e3d
00000270: 6614 97bd e8a4 443c d0aa 273d 7e5c 403d
00000280: 8635 4a3d 808d f73b de90 4cbd 8838 9bbd
00000290: 5081 81bd 8021 4dbb 5a61 85bc d824 a0bc
000002a0: 60e5 a33c 88ff 203d 201c 2dbb c032 04bc
000002b0: ace3 e3bc 1ca2 d23c fe57 60bd 806c 0f3b
000002c0: 0097 2f3b 6837 7cbc 2782 1bbd 5949 883d
000002d0: 80e5 19bd 66be 603d 1813 3dbc 80a2 5dbd
000002e0: 50c1 58bc 1014 fd3c 74e0 863c e269 93bd
000002f0: 00aa af3c acb2 d43c d029 b5bb 6073 76bb
00000300: 965e debc 9da8 913d fc13 20bd c48c 263d
00000310: 664d 97bd 0085 be3b a4da ebbc e744 953d
00000320: 687b 5dbc ad87 863d 2cba 1d3d d60b 55bd
00000330: 1150 2abd c00d aabc 1c5d 13bd 406e d33b
00000340: 7670 1fbd 00ac 11bc a122 2bbd e034 3c3b
00000350: a046 49bd 9cc3 6dbc a733 8f3d d09e df3c
00000360: 2ee7 473d e0e2 4cbb 18c0 2ebd 2abc 693d
00000370: 8abc 55bd 08a4 e0bc 8df4 84bd be7f 6a3d
00000380: ac25 73bd ddca 803d a0dd 54bb 9cf5 f5bc
00000390: fc6e 353d 8625 4b3d 2429 67bc 30b7 0a3c
000003a0: d58a 87bd 1088 41bc 5634 20bd 9712 973d
000003b0: 17de 10bd 26ab 493d c015 47bd 9c22 113d
000003c0: 1ef5 6f3d c03e d93b 1831 273d 16c7 09bd
000003d0: 5888 863c 7262 413d 969c 693d f609 d8bc
000003e0: e612 533d 80da bcba 40c4 b2bb 9014 343d
000003f0: 0574 9c3d f0ec 63bc 40d1 f23b 0856 15bd
-0.043546267 0.061230175 0.044312917 0.01230412 -0.011546403 -0.071313635 -0.0024000183 0.065024786
0.044900306 0.035876855 -0.011352994 0.00903067 0.04098258 -0.04379273 -0.034449514 -0.05084075
-0.021882992 -0.07371227 -0.053653248 -0.024886377 -0.042755015 -0.057005413 -0.0035603344 0.04438787
-0.071491264 0.067702524 0.07196916 0.0669248 0.03085231 0.047549933 0.041919358 -0.028944928
0.043010414 -0.04464135 -0.042157874 0.047256403 0.033870064 0.059269227 -0.049963366 0.009729981
-0.0029165074 -0.03935467 -0.0141742565 0.045396164 0.024292737 -0.028673485 -0.011059426 0.007099971
0.031405255 -0.009501897 0.018349484 -0.07649919 -0.05912634 -0.050392345 -0.026264451 -0.060959566
0.023335233 -0.020569675 0.023288168 0.018023886 -0.06141445 -0.03726694 -0.0008717701 0.06459067
0.00063079596 0.007794626 -0.029341068 -0.02833251 0.05639016 0.054408498 -0.05428598 0.0049027875
0.02039399 0.06761681 0.03631866 -0.07084377 0.0042844713 0.06255291 -0.012400657 0.05434484
-0.03218888 -0.04597545 0.024161726 0.024179019 0.021178499 0.026653834 -0.04941632 0.06141991
-0.03882559 -0.03760924 -0.019496579 0.018454887 0.07471993 0.03804689 -0.057062656 -0.07363467
0.032124683 0.05722951 0.061951064 0.024506964 0.020434834 0.054944105 0.03743653 0.06516596
-0.0033486038 -0.007902756 0.018179916 0.07407182 -0.013564847 0.047812954 0.029400304 0.007960223
-0.07147305 0.0680225 -0.01515751 0.038051814 -0.052942563 -0.049111295 -0.030727137 -0.020379134
-0.0030090585 0.067260645 0.012994178 0.020568587 0.011674412 -0.067973554 0.020659998 0.038807362
-0.054439574 0.06026379 0.013690464 -0.060686745 0.02788841 -0.0067166463 0.07203498 0.052045636
0.035759024 -0.0074331686 0.026881225 -0.03728738 0.06104996 0.0061186105 -0.039050706 0.069246896
-0.014495041 0.056861706 0.06757242 -0.04819377 0.07531414 -0.008280724 -0.006504789 0.07180712
0.0011204928 0.056227528 -0.06641921 0.05048611 -0.073769376 0.012002207 0.040934384 0.046963207
0.04936745 0.00755471 -0.049942844 -0.07579142 -0.063234925 -0.0031300485 -0.016281772 -0.019548818
0.020006835 0.039306194 -0.002641447 -0.00806874 -0.027818523 0.025712065 -0.054771416 0.002188474
0.0026792884 -0.015394069 -0.03796592 0.06654615 -0.037572384 0.054869078 -0.011540197 -0.05411005
-0.013229683 0.030893356 0.01646445 -0.0719793 0.021443367 0.025964104 -0.005528666 -0.003760539
-0.027144711 0.071122386 -0.03908156 0.04066159 -0.073878095 0.0058141947 -0.02879078 0.07288533
-0.013518192 0.06568847 0.038507625 -0.05201324 -0.041580264 -0.02075851 -0.035977468 0.006452352
-0.03892561 -0.008891106 -0.04178107 0.002871804 -0.04913962 -0.014511969 0.06992274 0.027297407
0.048804455 -0.0031263158 -0.042663664 0.057064213 -0.052181758 -0.027421966 -0.06491957 0.05725073
-0.0593621 0.06288693 -0.0032480732 -0.030024342 0.044295296 0.049596332 -0.01410893 0.008466527
-0.06618277 -0.011812225 -0.03911241 0.073765926 -0.03536805 0.049235485 -0.048604727 0.035433397
0.05858337 0.006629795 0.040818304 -0.03363713 0.016422436 0.047213025 0.057034098 -0.026371937
0.051531695 -0.001440838 -0.0054555237 0.043964922 0.076393165 -0.013911471 0.0074101985 -0.036459

tensor_network.weight_matrix_block f4 [16, 64]
00000000: 38ac 19be 078b 89be 5255 87be 7e18 5c3e
00000010: 905d 283e 088d ad3d 82c6 8a3e 9e57 2bbe
00000020: 764e bdbd da31 16be b466 243e 2c97 8b3e
00000030: a2e1 8a3e 825a 48be 9849 4d3d c46c 1ebd
00000040: 8d93 03be bed0 533e 80f8 613e 3e42 5e3e
00000050: ec3f 6b3e 08e1 d5bc 784e 473e 78fe dbbc
00000060: dccd 55be 506c 84be 6837 e93d 4c39 1e3e
00000070: 2ee7 ffbd c205 843e a0ff 783c 40e4 cb3c
00000080: 72b9 b8bd 4c1a 3c3e 3a8d 103e 9ef8 0bbe
00000090: baa4 8bbd 00b8 31bb b0d3 773e 1861 75be
000000a0: 9cb5 27bd 6e4f 70be 08d5 f8bc 1e4e 28be
000000b0: 7903 87be 6472 46be 5ace 29be 8a57 c9bd
000000c0: 2895 723d ce98 563e eabf 3ebe 3859 dbbd
000000d0: 2ccc 0ebd 5cf1 813e 143f 0abe 76cf 5cbe
000000e0: ecad 3abd 40bd bc3d e23e 5a3e 4cd4 32bd
000000f0: 182f 24be 38fc bebd 4850 cbbc dcf5 5b3e
00000100: 76e1 babd 3dee 63be cef2 01be 5012 8b3e
00000110: c6ed b5bd 1833 d23d 68e5 1ebe 2c9e 7b3e
00000120: 1cc8 223e a4cf 34be 52ae 583e 86f4 fcbd
00000130: c0eb bc3d 9052 20be a464 1bbd 48dd ed3d
00000140: f660 bbbd d086 813c 6a7c 08be 5c3d eb3d
00000150: 8490 b03d a02e 273c 68ce 4f3d 241d 71be
00000160: 939c 75be d0fb f6bd aeda 02be 307b 6b3d
00000170: 389e 3d3d 903b dcbc da8b dfbd 8656 143e
00000180: 8017 71bd c60d 253e 32ef 423e 8498 6ebe
00000190: d8af 623d 9e5d 81be c1c2 0cbe d8a2 7d3e
000001a0: e842 eabc 50df ab3d c0eb 613c 529a 2cbe
000001b0: 9a06 223e 3638 72be 14b9 24be fc79 3a3e
000001c0: 7032 a1bc 8054 ca3d d8ec 4b3d a063 d13d
000001d0: bcc3 623e b04a e73c 4053 06bc 44e2 d03d
000001e0: 229a 253e 66a0 00be d0c4 abbc 70ff 7e3e
000001f0: 70e5 46be 8ca3 d6bd 55d2 52be eef2 003e
00000200: f8f1 8d3d 9ba3 28be 64b0 d7bd ba1b 833e
00000210: bac1 73be c04b dbbb 9048 94bd 5820 573e
00000220: c08b 093c 378e 1fbe 3c85 1b3e a19e 4bbe
00000230: 4e91 4ebe 64b8 253e f47e debd e62a 4b3e
00000240: 10ed 35bd f4b5 8c3d fca0 04bd a85e 6d3e
00000250: 36ec 0fbe 0422 333e a805 093e 808c bb3d
00000260: 246d d5bd ccf9 f83d 78ae 813e 2409 74bd
00000270: 4063 06be 3011 523d 84d7 80be 5677 32be
00000280: 6d1b 13be 4e2b 2e3e 10a6 28be c0af 453c
00000290: 68ae 6f3e eb56 19be cc10 863e 20ad 873d
000002a0: 8a5a 5f3e c888 203d 9079 36be 3ca1 8d3d
000002b0: 4c67 80be 8292 c6bd 2824 d03d 6653 19be
000002c0: e09b d73d d67e 63be c8c8 5d3d 00e0 3fbb
000002d0: 3464 b83d e489 6b3e 24c3 893e 8c9c fc3d
000002e0: b0dd 67bd b874 173e d26b 593e 385b e8bd
000002f0: e0fc eebc f49c 32be 9406 8c3e 2b8f 01be
00000300: 12c9 0abe 0062 32ba 0b30 7fbe 0047 043e
00000310: c44e 8bbe 9443 e83d 362e 4b3e bee8 093e
00000320: 688f 55bd 7cc7 26bd dca6 313e 00c1 fcbc
00000330: 9401 4e3e 76ba cebd fcde 9abd 70ed dc3d
00000340: 5a52 253e 975a 06be 0040 6ebe 064c 2f3e
00000350: f2c6 663e d4a7 163e b670 603e b2b1 c0bd
00000360: aecb 1dbe 80fd c63d 2655 843e 0009 6a3c
00000370: 4c6e 46be 3efa 1d3e 6ed7 5ebe 586e 3c3d
00000380: ee69 edbd d0a9 8e3c 1ab5 5f3e b218 bbbd
00000390: 6020 323e 0cfa f0bd b52f 86be e034 cd3c
000003a0: 3039 b93c 180a 24bd 4603 a7bd 4dce 50be
000003b0: 3c44 38bd e8fa 53be de44 9cbd cc5c d53d
000003c0: dff9 68be e3a4 10be 2065 623d 2094 173e
000003d0: 247d 7d3e b619 343e 8c80 0b3e 87eb 51be
000003e0: 8a81 5b3e 1405 9c3d d22a d2bd 48c6 643e
000003f0: 48cb 003d 26b8 9cbd 449a d6bd d080 f03d
-0.15007102 -0.26863882 -0.26432282 0.21493718 0.16441941 0.08474165 0.27104574 -0.16732642
-0.09243481 -0.14667454 0.16054803 0.27263772 0.2712527 -0.19565776 0.050119013 -0.038677946
-0.12849255 0.20685098 0.22067451 0.21704957 0.22973603 -0.02610828 0.19463527 -0.026854739
-0.2087931 -0.25863886 0.11387521 0.15451545 -0.12495266 0.25785643 0.0151976645 0.024889112
-0.09019746 0.18369406 0.14116374 -0.13669059 -0.068185285 -0.002711773 0.24201846 -0.2396282
-0.04094468 -0.234678 -0.030375019 -0.1643605 -0.26369837 -0.19379574 -0.16582623 -0.0983115
0.059224278 0.20956728 -0.18627897 -0.107103765 -0.034862682 0.25379455 -0.13500625 -0.21563515
-0.04557602 0.09215784 0.2131305 -0.043659493 -0.1603359 -0.09325451 -0.024818555 0.21480507
-0.091250345 -0.2225885 -0.12690279 0.2716241 -0.08883242 0.102636516 -0.15517199 0.24572057
0.15896648 -0.17657334 0.21160248 -0.12351327 0.09224653 -0.15656495 -0.037937775 0.11614472
-0.09149353 0.015811354 -0.1332871 0.11486313 0.08621314 0.010203987 0.050733954 -0.23546273
-0.2398551 -0.12059748 -0.12778732 0.057490528 0.046293467 -0.02688387 -0.109153464 0.14486131
-0.058860302 0.16118535 0.19036558 -0.23300368 0.05534348 -0.25266737 -0.13746168 0.24769151
-0.028596357 0.08392203 0.013789117 -0.16855744 0.15822831 -0.23654255 -0.16086227 0.18210596
-0.01967737 0.09879398 0.04978642 0.1022408 0.22144979 0.028233856 -0.008198559 0.10199407
0.16172078 -0.12561187 -0.020967871 0.24902129 -0.19423461 -0.10480413 -0.20588048 0.1259267
0.069309175 -0.1646866 -0.10531691 0.2560709 -0.2380437 -0.0066923797 -0.07240403 0.21008432
0.008395135 -0.15581594 0.15187544 -0.19884731 -0.20172617 0.1618362 -0.10864058 0.19840583
-0.044415534 0.06870642 -0.03238009 0.2318064 -0.14054951 0.17493445 0.13381064 0.091576576
-0.104212075 0.1215702 0.25328422 -0.05957903 -0.13123798 0.051285923 -0.25164425 -0.17428336
-0.14365931 0.17008707 -0.16469598 0.012065828 0.23406374 -0.14974563 0.2618469 0.06624818
0.21811882 0.039192945 -0.1781981 0.06915519 -0.2507881 -0.09695913 0.10163146 -0.1497322
0.10527778 -0.22216353 0.054146558 -0.0029277802 0.09003487 0.2300182 0.26906693 0.123345464
-0.056607902 0.14790618 0.21232536 -0.113455236 -0.029173315 -0.17442685 0.2734877 -0.1265227
-0.13553265 -0.0006804764 -0.2492067 0.1291771 -0.2720853 0.113410145 0.19841847 0.1346769
-0.052138716 -0.040717587 0.17348808 -0.030853748 0.2011779 -0.10094158 -0.07562062 0.10787475
0.16144696 -0.13120495 -0.23266602 0.17118844 0.22536829 0.14712459 0.21917996 -0.09408893
-0.15409729 0.0971632 0.25846213 0.014284372 -0.19378012 0.15427491 -0.21761867 0.04600367
-0.1159247 0.017414957 0.21846429 -0.0913557 0.17395163 -0.11766443 -0.26208273 0.025049627
0.022610277 -0.04004869 -0.08154921 -0.20391198 -0.04498695 -0.20701182 -0.07630323 0.1041809
-0.22751568 -0.141254 0.05527222 0.14802599 0.24754769 0.17587933 0.13623255 -0.20500003
0.21436134 0.07618156 -0.102620736 0.22341263 0.031443864 -0.07652311 -0.104786426 0.11743319

tensor_network.bias f4 [16, 1]
00000000: 9095 1dbd 82c6 c23e 6828 fc3e f0df e63e
00000010: 9b22 91be d829 0b3e 8c8e d03e cc9b 63be
00000020: e817 2fbe e013 273d 685e da3d a0e2 ff3e
00000030: 987a 613e 0037 47bc 325c 033f cac0 a63e
-0.038472712 0.38042074 0.49249578 0.45092726 -0.28346714 0.13590181 0.40733755 -0.222274
-0.17098963 0.04079044 0.10662538 0.4997759 0.22019422 -0.012159109 0.51312554 0.3256896

fully_connected_first.weight f4 [16, 16]
00000000: bcf7 4f3e e41d b93d 1a13 203e 2046 6c3e
00000010: 3c17 fd3d 36a6 383e c087 24bd 705c 19bd
00000020: f674 063e 8203 3e3e f413 abbd 260b 553e
00000030: 50f5 453e 6044 613c c891 753e 28b4 683d
00000040: 68f8 08bd 80ef 48be 28a6 1abe 9eb8 5dbe
00000050: 7e6f 163e 0810 f53d e64b 063e 48d8 573e
00000060: 28e3 79be a42f 943d 0e26 39be 0860 933d
00000070: d4d9 723e 40bb 3e3e 80ee a63b 0c86 26be
00000080: c83d c0bd 1252 10be 6ee8 193e 883f 13be
00000090: 7a8f 5cbe 907d 04bd d095 7ebd 704b 1d3d
000000a0: 86fd 223e f44e a73d 08bb d53d b070 523d
000000b0: e6cb 0bbe f67c 67be 00e9 613d c06f 57bd
000000c0: 164d 103e 1eb2 30be 08fe 15be 7804 9abd
000000d0: 18c1 0dbe 4467 61be 9cb2 4abe fcaf 20be
000000e0: 0092 7aba 5ad0 7d3e 46ae 023e d0b5 a8bd
000000f0: 30a8 ba3d 8ec2 03be 3e74 16be 58a3 3ebe
00000100: 4263 183e d267 6d3e 54f8 143e fef6 0d3e
00000110: 280b 48bd 6e95 6f3e c045 523c bc98 4dbe
00000120: 9899 7abd bc84 cabd dc75 22be b8b6 c8bd
00000130: 00a3 033d 6459 7e3e 3ca9 34be b40d 8bbd
00000140: 389e 373e 007f f93a 8e68 073e 60a3 cc3d
00000150: 00ed be3c 0053 c9bd b629 52be 00b6 7b3c
00000160: 00ec b939 1804 43be 8c02 c1bd 9405 bcbd
00000170: 001f 7dbd 1856 583e 52fe 2ebe 566f 6c3e
00000180: 38cf 19be a88e 3f3d a0e9 2fbc 046b 1ebe
00000190: 6885 64be 6488 b1bd 6a54 06be e005 e13d
000001a0: c0aa 00bd 004d a2bc 4c82 b3bd e80d dcbd
000001b0: 1839 123d 4843 5fbe 4852 20be 9c89 f6bd
000001c0: 6036 d5bc 5c24 d93d 4434 59be e82c d3bd
000001d0: c032 bebd e0c5 423e 8076 e53d 3e27 14be
000001e0: 0e3e 4bbe 7823 32bd 30c7 59be e0a7 43bd
000001f0: 0025 3d3e 30ca 443d c81b 7b3d 08af 6e3d
00000200: 1098 4e3d 7423 8dbd 107d 3d3d 9c10 47be
00000210: 4034 77bd 2cba e93d c84f c5bd fa80 50be
00000220: 24d5 e2bd 008f 203d 881f 1fbd 4832 2abe
00000230: ec01 88bd 205c edbc 80c8 5cbd c8e3 293e
00000240: 2c7a 353e 402b edbc 56f7 1b3e 00b2 213e
00000250: 9086 2bbe 6a43 29be 68a0 c33d a0cf e1bd
00000260: 547d db3d fcbf 163e 7a08 743e c2ef 2a3e
00000270: 20d2 113c 305e 55be f05c e03c 48bd 1dbe
00000280: 3a3a 073e a033 4c3c a67c 023e 5ced 533e
00000290: 2ad3 1a3e 4028 a5bc 00a9 9c3a 7c2b fdbd
000002a0: f0dd 003d 06d4 733e e207 3a3e 3ca2 4c3e
000002b0: 381b acbd 62b4 1a3e cc73 e3bd e4cf ffbd
000002c0: c8a2 363e 10a9 ef3d 9007 bdbc 5044 283d
000002d0: 08a8 e0bd 12a6 1ebe 9027 91bd 6c49 103e
000002e0: a8dd 713e 4c23 243e a073 0abd 8209 78be
000002f0: a07d 26be b8af 84bd 04e5 66be 7cd0 5fbe
00000300: 0847 3f3d d858 43bd 5cf9 34be 84a6 96bd
00000310: b887 b53d d021 bbbc 9053 163d 68ca ccbd
00000320: ccfa b23d d075 8c3d 6667 7fbe d035 2abd
00000330: 261a 1c3e be7a 6d3e 26e1 67be 9616 2dbe
00000340: 20f8 e6bd bce4 2a3e 00ab e1ba 08eb 043e
00000350: bc94 3f3e 3835 c23d 5410 88bd 8664 2abe
00000360: e0cf 173d 00a9 ca3c 9030 e8bc 685d 633e
00000370: 9054 ff3d b817 ddbd dcad fbbd 54e7 c1bd
00000380: f8c8 10bd 607f 0f3e 5015 48be b81f 20be
00000390: 7282 6f3e 6c43 8e3d 02eb 34be e446 2cbe
000003a0: b4a9 adbd d89a d83d 18ef 583e da5c 73be
000003b0: ac23 3dbe 20e2 f2bc bc94 f4bd b008 49be
000003c0: f0e2 d53c 48e6 42bd b00d a93c 90b4 13bd
000003d0: 304c ad3c 5298 23be a86a 09bd a088 21bd
000003e0: c021 58bd 5c2d 393e 3ce1 8cbd 6800 42bd
000003f0: 844f eebd 0ca8 55be 00e0 5b38 96e7 70be
0.20309347 0.09038904 0.15632287 0.23073626 0.12357947 0.18032154 -0.040168524 -0.03744167
0.13130555 0.18556026 -0.08353415 0.20805034 0.1933186 0.013749212 0.23981392 0.056812435
-0.033440024 -0.19622612 -0.15102446 -0.21652457 0.14690968 0.11965948 0.1311489 0.21078598
-0.2440306 0.07235649 -0.18080923 0.07196051 0.23715907 0.18626118 0.0050943494 -0.16262072
-0.09386784 -0.14093807 0.15030071 -0.14379704 -0.21539107 -0.03234631 -0.06215459 0.03840202
0.15917024 0.08169356 0.10436064 0.051377 -0.13652 -0.22606263 0.055153847 -0.052596807
0.14091906 -0.17255446 -0.14647686 -0.075203836 -0.1384319 -0.22012049 -0.19794697 -0.15692133
-0.0009558499 0.24786511 0.12761793 -0.08237803 0.091141105 -0.12867185 -0.1469278 -0.18616998
0.14881614 0.23184136 0.14547855 0.13863751 -0.048838764 0.23396847 0.0128340125 -0.20077795
-0.061181635 -0.09888598 -0.15865272 -0.09800476 0.03213787 0.24838787 -0.17642683 -0.06789723
0.1793145 0.0019035041 0.13223478 0.09992099 0.02330637 -0.09830284 -0.20523724 0.015363216
0.00035461783 -0.1904453 -0.09424314 -0.091807514 -0.061797142 0.21126592 -0.17089203 0.23089346
-0.15020454 0.046766907 -0.010736853 -0.1547051 -0.22316515 -0.086685926 -0.13118139 0.10987449
-0.03141284 -0.019812107 -0.087650865 -0.1074484 0.03569898 -0.2180301 -0.15656388 -0.12037966
-0.026026905 0.10602638 -0.21211344 -0.103112996 -0.092870235 0.19020796 0.11204243 -0.14468095
-0.1984789 -0.043490857 -0.2126739 -0.04776752 0.18471146 0.048044384 0.06130579 0.05827239
0.050437987 -0.06891528 0.046261847 -0.1943993 -0.060352564 0.114124626 -0.09634358 -0.203617
-0.110758096 0.039198875 -0.03884843 -0.16620743 -0.066409916 -0.028974593 -0.05390215 0.16590798
0.17722386 -0.028951287 0.1523107 0.15790558 -0.1675055 -0.16529623 0.095520794 -0.110259295
0.10717264 0.14721674 0.23831359 0.16693023 0.008900195 -0.20836711 0.027388066 -0.15404236
0.13205805 0.01246348 0.12742862 0.20696014 0.15119615 -0.020160794 0.0011952221 -0.123618096
0.031461656 0.2381135 0.1816707 0.19983763 -0.08403629 0.15107873 -0.11106071 -0.12490824
0.17835534 0.11702168 -0.023074895 0.041080773 -0.109695494 -0.15493038 -0.07087624 0.14090508
0.23619711 0.1602909 -0.033801675 -0.24222377 -0.1625886 -0.06478828 -0.225483 -0.21856874
0.0466986 -0.04769215 -0.17673248 -0.07355979 0.08863777 -0.022843271 0.036700785 -0.099995434
0.08739242 0.068584085 -0.24941787 -0.041555226 0.1524435 0.23191354 -0.22644481 -0.16903147
-0.11277795 0.16688818 -0.00172171 0.12980282 0.18709081 0.09482807 -0.06643739 -0.16639909
0.03706348 0.024738789 -0.028343469 0.222036 0.12467301 -0.107955396 -0.122890204 -0.094679505
-0.03534791 0.14013433 -0.1953938 -0.156371 0.23389605 0.069464535 -0.17667773 -0.16823918
-0.08479634 0.10576409 0.21184957 -0.23765889 -0.18470639 -0.02964884 -0.11942431 -0.1963222
0.026109189 -0.047582895 0.02063641 -0.03606087 0.021154493 -0.15976074 -0.03354898 -0.039436936
-0.05276656 0.1808371 -0.068788975 -0.04736367 -0.1163626 -0.20864886 5.2422285e-05 -0.23525843

fully_connected_first.bias f4 [16]
00000000: 9866 a33d c002 d9bc 72bd 3f3e 5430 d6bd
00000010: 808b 5bbb 40cc f0bc 341a 50be da28 233e
00000020: 30a1 4ebd 4812 c5bd 8c11 c93d 38b6 483d
00000030: 0097 7dbb 484a 5abe 7013 13bd 882e 443e
0.079785526 -0.02649057 0.18724611 -0.104584366 -0.0033499897 -0.029394269 -0.20322496 0.15933552
-0.05044669 -0.096226275 0.098178 0.049001902 -0.003869474 -0.21317399 -0.03590721 0.19158375

scoring_layer.weight f4 [1, 16]
00000000: ac0d c0bd bc7a 3abe 70a7 82bc c855 82bd
00000010: fe6d 6bbe 30ec a3bd 5cb0 9ebd a864 2a3d
00000020: 7893 3a3d 3cdf 33be cce8 663e 48bb f93d
00000030: dcdf 2e3e d45f afbd 0811 5ebe 8413 f53d
-0.09377608 -0.18210882 -0.015948981 -0.06364018 -0.22991177 -0.080040336 -0.07748482 0.0415999
0.045550793 -0.17565626 0.22549742 0.12193924 0.17077583 -0.085632 -0.21686184 0.11966613
