SimGNN-2차/saved_teacher_models/batch64_epoch200_GCN2_13.pth (torch, 128763 bytes, 13 tensors)

convolution_1.bias f4 [128]
00000000: e079 64b7 3866 c6bd 082f 82bd c3e7 edbb
00000010: 0ab2 efbd 61b3 b7bd 0e8b 19be f928 23bd
00000020: ea7b 09be b2f8 27be 02c3 26be ea31 c5bd
00000030: c8ce f4bd 4a1f fdbd f97b 28be 1887 49be
00000040: bcaf 39bd ae26 bfbc fda9 05bd 6ddf 34be
00000050: bde5 03bd 70bc eabd f867 f4bd 0ea2 c4b3
00000060: 4f15 20be d188 cbbc 8efd 8bbe e3c5 8bbd
00000070: 14b4 02be 5e15 59be 6fb8 f8bd f103 5bbe
00000080: da03 8698 d350 a2ac a7b4 c4bd ad8a 59b3
00000090: b188 47be dc3a 71bc a480 c8bd 85a7 26be
000000a0: 50c5 cebd ddc9 acbd 619e e7bd 8643 9dbd
000000b0: fe8b 42be b9d9 84bd fcc9 94bd abf9 28b6
000000c0: 6641 76bc ddd8 b43c 3e94 98b7 f610 a3bd
000000d0: 8722 3cbe 954a 8bbe b854 20be 83ad 98be
000000e0: fe6d 739e 1a13 aba9 a7d1 cdbd d283 648b
000000f0: 607d 31bd 796e a4be 65d6 b5bd 68ef 78be
00000100: 04af afbd 9f0e 80b4 fa5d 6ea0 d5ba e9b2
00000110: 30ce b49d 9aba 8ebc a91c 80b7 52bb f3bd
00000120: 2555 1dbe 0a86 aabd 3ca3 3ebe 7049 28be
00000130: b700 efbd ca16 80be abff 41be 14f0 3bbd
00000140: c294 0bbe 8946 9eb1 da9a d2bd dba4 50be
00000150: cc18 9fbd 846b 97be 10f9 86be 013f 0bbe
00000160: 1d30 e1bc 7d2d f9bd a5a9 d7bd 1984 3b87
00000170: ee9b 679e ce49 e8bd 4ed1 16bd 09cf 2bbe
00000180: a58d 01bd d508 c2bc d970 2abd 9ce5 13be
00000190: d970 a1bd 0b39 5cb5 9d80 4bbe ea11 afbc
000001a0: 0ec1 01be 9ac5 16be 8278 e3ae e92e a6a1
000001b0: 1c60 0fbe 9fc6 dcbd e5c7 d0bd 843c 2abc
000001c0: afa7 dbbd a604 64bb c731 e2bd 8e5f 03bb
000001d0: b0e4 66b1 a04e 06be e890 be9f 3c7f c9bd
000001e0: 58e2 e2bd cdb1 a3bb 7add b7b0 4822 42be
000001f0: 8956 aebd 4fbf 1abe da64 bebd aca0 b6be
-1.3618235e-05 -0.096874654 -0.06356627 -0.007260294 -0.1170388 -0.08969761 -0.14994451 -0.039833996
-0.13426176 -0.16403463 -0.16285327 -0.09628661 -0.11953503 -0.123594835 -0.16453542 -0.1968044
-0.04533361 -0.023333874 -0.032632817 -0.17663355 -0.032201517 -0.11461723 -0.11933893 -9.156439e-08
-0.15633129 -0.024845513 -0.27341884 -0.06824853 -0.12764007 -0.21199557 -0.12144553 -0.21388222
-3.4642077e-24 -4.6132902e-12 -0.09604769 -5.0650375e-08 -0.19485737 -0.014723506 -0.09790161 -0.16274841
-0.10096228 -0.0843694 -0.11309505 -0.07678895 -0.18998715 -0.0648684 -0.07265088 -2.5179277e-06
-0.015030241 0.022076065 -1.8188843e-05 -0.079622194 -0.18372546 -0.2720534 -0.15657318 -0.2981988
-1.2887059e-20 -7.597239e-14 -0.10049754 -4.4010373e-32 -0.043332458 -0.32115534 -0.08878783 -0.24310076
-0.085783035 -2.3852496e-07 -2.0190478e-19 -2.7209731e-08 -4.7858796e-21 -0.017422963 -1.5272135e-05 -0.11900963
-0.15364511 -0.08326347 -0.18616956 -0.16434264 -0.11670058 -0.25017387 -0.18945186 -0.045883253
-0.13630965 -4.606424e-09 -0.10283442 -0.20375387 -0.077684015 -0.29574215 -0.26361895 -0.13598253
-0.027488763 -0.12166879 -0.10530404 -1.4107136e-34 -1.2261284e-20 -0.11342202 -0.036820702 -0.16778196
-0.031629223 -0.023685852 -0.041611526 -0.14443058 -0.07882852 -8.2039395e-07 -0.19873281 -0.021370847
-0.12671301 -0.14723817 -1.03441714e-10 -1.1261015e-18 -0.14001507 -0.107800715 -0.10194377 -0.010390405
-0.107253425 -0.003479281 -0.110446505 -0.0020045969 -3.3599399e-09 -0.1311593 -8.070786e-20 -0.09838721
-0.11078328 -0.0049955607 -1.337795e-09 -0.1895839 -0.08512599 -0.15112041 -0.0929658 -0.35669458

convolution_1.lin.weight f4 [128, 15]
00000000: 6008 0000 512d 9a86 f70f 0080 1c05 0000
00000010: c910 0000 670b 0000 d0d4 5a8c c601 0080
00000020: 3d05 0000 4315 0080 9304 0080 6346 3306
00000030: 3631 0000 6ebe e28f 4022 0000 ed76 a5be
00000040: b2b8 c23e 089a 25bd 1939 503e 833a d23e
00000050: f91d 833e 8b8b d6bd b49a 613d d756 08bf
00000060: 4bb8 053d 1e60 8dbd fd19 9abe f73d 21be
00000070: e319 403e 6997 2abe 2566 0abf 01fe c33e
00000080: ec83 a23d 88ca edbe c40b fa3d 1182 883e
00000090: a055 043e 05d8 413d 2a7b b13e de6e ab3e
000000a0: 0365 9dbe 78b7 9fbc e9bd 0e3d 4b66 e7be
000000b0: 9f26 f23b a774 87aa c0e2 9cb5 1111 429c
000000c0: 5163 a8b2 fed4 2db5 3fba 36a4 fb51 0eb6
000000d0: 6c9c 4034 9f36 6cb4 b4bb b92e 7b43 99a9
000000e0: 05f4 f6a9 8208 0080 2d16 ceb2 cde9 919b
000000f0: ee60 adbc 4a27 8b3e 840c 3c3d b596 953e
00000100: d333 e2bd 1d77 3ebc c705 5cbe 84af 5b3e
00000110: 134b 02be 2b37 813d f873 a0bd 3915 0f3d
00000120: 63ed c03e 5e49 743d 06ae d63c 82fc 11be
00000130: 504c 903e d406 2f3e 63b9 70be 08ce a0be
00000140: db5f 683e a4fd 77be f9f8 f23e 68df 1ebe
00000150: f567 39bc bb70 36bc ad0d 8bbe 41ab b7bc
00000160: 4c06 b1bd f9eb 01be 1202 293d 16e9 92be
00000170: ae6f 233d 1496 8dbd b926 923d dbb2 0abe
00000180: 42eb 9b3e 6f46 51be 5214 19be 1070 683d
00000190: 974b 89bd 535f 163e f29c f43e 0380 413e
000001a0: 4b8b 95bd 1d79 76be fc34 84be af30 b1be
000001b0: 58fb 65be 9716 fe3d 12b5 e33e bfca abbb
000001c0: d1bd 243e 749a 59be 320f 4cbe 8ff9 0c3d
000001d0: 4de1 ffbe 008e 3cbe 3105 c23e 772e 3e3e
000001e0: 17bc fbbc 8708 163c 5e73 9abd 805f 57bd
000001f0: 108b 50bd 0d10 6a3e ee6c c3bd 7bc4 50bc
00000200: 1cf3 843c 865b b73c 9043 463e b3a7 703e
00000210: 0e7e 8fbd 9c91 1d3c 12c0 0a3e 6e49 6e3d
00000220: b9fb 38be 422d 1bbd 4eca d63d 048b a13e
00000230: e41d 84be 6ea6 9cbd 61b3 c33e 4a1c dfbd
00000240: eba7 a93e 0eae 24bd e272 193e 7ef3 8b3d
00000250: 3b09 8b3e 8310 053e 7995 09b9 ef70 d4be
00000260: 5b03 253e 5cbb 52be 7d73 38be c9cc 0b3e
00000270: 0e00 da3d 0270 303f 9bae 9a3c bb07 88bc
00000280: c8e8 362c 32d3 35bc 3f52 a7bd a5ed 073e
00000290: 8857 06be f9e0 a53e f54b 1bbe 5f92 61be
000002a0: e9d3 9e3e 01e8 4d3c 1980 50be 67ac 963d
000002b0: b516 8fbe aee3 d23e 316b b0be cc6d f23d
000002c0: bedd 7e3e b8ad 1d3b 81f3 7cbe 11ad ddbd
000002d0: 6d08 d33e a19a 863c 352a 96bd b6ee bebd
000002e0: 2449 053e cb61 91bd 72f7 c8bd 6563 f13c
000002f0: 1a3e 6bbd 5a77 04be eb7e 883e 5905 c3bd
00000300: fed6 9bbd 229f 023e b60b 9d3e e70a c8bc
00000310: b4ff 86be fe91 b43e 7ec1 823d dcbb 21be
00000320: ae77 b43d f0e0 03be 1843 f93e 14d5 1a3c
00000330: a149 0e3d 5481 ecbb 749e 11be 2073 1abe
00000340: 50b3 7e3e f7a9 a83d 8df0 183f 2d84 3fbe
00000350: 3eb7 0bbe 8b56 153e 08fa 5cbe c6fb 313e
00000360: 4334 4d3e 4a0a c0bd 1173 a33e 59b8 90bc
00000370: d016 003e 78ac 51be 634f 1e3e 5ba9 1fbe
00000380: b6ed c4bd 6c4e 373b d86d 91bd 0db0 303d
00000390: 9343 c23e 7e70 7d3e 6c34 373d 3f82 9abc
000003a0: e1d4 89bc 4abc 3abd 6c09 4ebe d123 8bbd
000003b0: 91c7 b83e 9a38 fb3c 7ea9 533d 9792 81bb
000003c0: d92b bebc 6899 5abe 0ec0 68be 6c4b 9dbe
000003d0: 48c5 f73e 3412 45be 4d99 e03c 5242 99be
000003e0: da28 813e 133b 103e b0a2 493e 967e 103d
000003f0: 76d0 993c 8228 a2be b174 81be 8bf9 2cbc
3.004e-42 -5.799495e-35 -5.727e-42 1.833e-42 6.021e-42 4.09e-42 -1.685815e-31 -6.36e-43
1.879e-42 -7.627e-42 -1.641e-42 3.371787e-35 1.7654e-41 -2.2358671e-29 1.2287e-41 -0.32317296
0.38031536 -0.0404301 0.20334281 0.41060266 0.25608805 -0.104758345 0.055079177 -0.5325751
0.03264646 -0.069030985 -0.30097952 -0.15746294 0.18759875 -0.16659321 -0.5406211 0.38279727
0.07935318 -0.46443582 0.12209275 0.26661733 0.12923288 0.047325153 0.3466428 0.33483022
-0.30741128 -0.019496664 0.03484908 -0.4519523 0.007389858 -2.406176e-13 -1.1688899e-06 -6.4211273e-22
-1.9602938e-08 -6.4757467e-07 -3.9622716e-17 -2.1207368e-06 1.79383e-07 -2.1999084e-07 8.446169e-11 -6.806271e-14
-1.0966925e-13 -3.052e-42 -2.399164e-08 -2.4139328e-22 -0.021164384 0.27178413 0.045910373 0.29216543
-0.11045041 -0.0116250785 -0.21486579 0.21453673 -0.12723951 0.063093506 -0.07834619 0.03493235
0.37681112 0.05964028 0.026206028 -0.1425648 0.28183222 0.17092448 -0.2350822 -0.3140719
0.22692816 -0.2421785 0.47455576 -0.1551491 -0.011316289 -0.0111352755 -0.2715887 -0.022420527
-0.08643779 -0.12687673 0.04126174 -0.28693455 0.039901428 -0.06913391 0.07136292 -0.1354479
0.30452925 -0.20437025 -0.14949158 0.056747496 -0.06703871 0.14684801 0.4777599 0.18896489
-0.07301959 -0.24069639 -0.25821674 -0.34607455 -0.22459161 0.124066524 0.44474083 -0.005242675
0.16088034 -0.21250325 -0.19927672 0.034417685 -0.49976578 -0.18413544 0.37894586 0.18572412
-0.030729337 0.0091573065 -0.07541536 -0.05258131 -0.05091387 0.22857685 -0.09542261 -0.012742157
0.016229205 0.022382509 0.1936171 0.23501472 -0.07006465 0.0096172355 0.13549832 0.058175497
-0.18064775 -0.037884958 0.10487805 0.31551373 -0.25804055 -0.076489314 0.38222793 -0.108940676
0.33135924 -0.040205054 0.1498523 0.06833552 0.2715548 0.1299458 -0.00013121021 -0.41492411
0.16114561 -0.20579284 -0.18012805 0.13652338 0.10644542 0.6892091 0.018882087 -0.016605249
2.5992975e-12 -0.011097716 -0.08169984 0.13274248 -0.13119328 0.32398203 -0.15165694 -0.22028492
0.3102105 0.012567521 -0.20361365 0.07357102 -0.27947012 0.4118933 -0.3445678 0.11837348
0.24889275 0.0024059843 -0.24702264 -0.108240254 0.41217366 0.016431155 -0.07332269 -0.09322874
0.13016182 -0.07098731 -0.098128214 0.02946634 -0.05743227 -0.12936154 0.2665933 -0.09522504
-0.07609366 0.12756017 0.30672997 -0.024419261 -0.2636696 0.35267633 0.06384562 -0.15794319
0.088118896 -0.12878776 0.48684 0.009450216 0.034738187 -0.0072175656 -0.14220601 -0.15082979
0.2487309 0.08235543 0.5974205 -0.18702765 -0.1364412 0.14583795 -0.21579754 0.173812
0.20039468 -0.093769625 0.31923726 -0.017666029 0.12508702 -0.20475948 0.15459971 -0.15591948
-0.09615652 0.0027970327 -0.07101029 0.043136645 0.3794218 0.24749944 0.044727728 -0.018860934
-0.016825141 -0.045589723 -0.20120782 -0.06793941 0.36089757 0.030666638 0.051675312 -0.0039542424
-0.023214268 -0.21347582 -0.22729513 -0.30721605 0.483927 -0.19245225 0.02741685 -0.2993341
0.2522648 0.14085035 0.19690967 0.03527697 0.01877616 -0.3167153 -0.2528434 -0.010557543

convolution_2.bias f4 [64]
00000000: 2351 1cbe 832e a13c df94 0bbc 9ff2 04bd
00000010: 9eaf 1eba ad7f 9ebc 28d7 7d3d c39d c8b4
00000020: 7527 d83c 854a b7b7 5eac babd c1ba 18bc
00000030: ba5f 2bbd 10e5 04be 33ea 4a3c 3f69 79bc
00000040: 702f 22bc 9736 24bb b222 1fbd efa7 ecbc
00000050: d571 10bc 3c5d a1bd c591 03bd 34c5 38bc
00000060: 5f26 00be 0419 b1b6 4e1d 10bd cd85 17b0
00000070: 5e78 e43c 57b7 c9bd e8bc 3cbc e7e7 86bb
00000080: df15 86bd f35e 90bd 0f1b 90bd 3b28 96bc
00000090: 7c4e cc3c e69b 15bd de2b 09bd 84a0 9fbb
000000a0: ad3f f8bb 4279 90bc 11fc 87bd 8624 583a
000000b0: 03ee 5fb9 cae5 10bd 456b 15bd 450e d03c
000000c0: 45bc 393d 6022 ebbc b54d 0cbc bdca 13be
000000d0: d4e7 76bd 3c3e 073d 118b 81bd 4edc d6bc
000000e0: 7a89 27be 7a6f 6abc d648 4dba ccbd 5bbd
000000f0: 1bd0 a3bb cbe0 c6ba 8e85 01be a1be 493c
-0.15265326 0.019675499 -0.00851938 -0.032457944 -0.00060533907 -0.01934799 0.061972767 -3.736769e-07
0.026386002 -2.185e-05 -0.09114908 -0.009321869 -0.04183934 -0.12978005 0.012384939 -0.0152228465
-0.009899005 -0.0025056952 -0.038851447 -0.02888867 -0.008816202 -0.07879111 -0.03212144 -0.011277486
-0.12514637 -5.2779233e-06 -0.035184197 -5.512362e-10 0.027889427 -0.098494224 -0.011519648 -0.0041170004
-0.0654714 -0.0704936 -0.07036411 -0.01832973 0.024939768 -0.03652563 -0.0334891 -0.00487143
-0.00757595 -0.017635945 -0.06639875 0.00082451885 -0.00021355604 -0.035375394 -0.036479253 0.02539743
0.045345563 -0.028702915 -0.008563449 -0.14432807 -0.060279682 0.033018336 -0.06325353 -0.026228096
-0.16361037 -0.014308805 -0.0007830983 -0.0536478 -0.0049991733 -0.0015173195 -0.12648603 0.012313516

convolution_2.lin.weight f4 [64, 128]
00000000: f72e 0080 c257 803c 4cc6 f03c 472d 0000
00000010: 6342 b1bc df08 ba3d d253 b6bc 6886 5b3d
00000020: 0b96 0c3d 1e20 e934 0e64 4dbc 93aa 02bd
00000030: d5e3 43bc 0af9 0c3d bf86 81bc e563 b6bc
00000040: cbe9 ebb7 fc6a 3239 be1f cdad b6a7 74bb
00000050: 7fa4 a0bb 0f1b 28bb 3fbf 403d 055e 0080
00000060: 1af5 a9ba c749 65bc 8701 b8b5 20de 87bb
00000070: 6f07 f4bc 06d9 43bc df68 6a3c 04ac deb8
00000080: 8929 0180 978e 0000 7e75 323e f649 0080
00000090: cf4e b83c e60b e3bc 3f70 fabb bdf8 1bba
000000a0: f06f 253d ac6c a63c 41cb 10bd 5325 4ebc
000000b0: 391e a3bc 9f50 ccbc 4999 6f3d d720 0080
000000c0: 8f1e 0000 9261 82bc 2e5c 0000 889b ab3d
000000d0: 9cd6 13b5 fb97 f2bb 994c 87bb 4055 633c
000000e0: bc9d 0000 bf10 0000 f094 d2bc ca60 0000
000000f0: d5d4 ba3d 46dc 073d e4c2 bd3d da4f 2d3c
00000100: 5711 f93d 3938 0000 b46f 0080 c5b9 2913
00000110: 8a59 0000 5d27 0080 6c45 0000 3b2c abbc
00000120: f2b9 acbc 83cc 2f3c 006c 323d 19a9 10bc
00000130: 4219 deba 83d6 dc3c fd30 b43d f759 39bd
00000140: 52cb 0d3b 9ba1 0000 b0b7 aeb4 bf07 3b3d
00000150: 4e8d e63c 3f12 7d3a 77ff d1ba 0a98 d5bc
00000160: e06d abae 00fa cfbc 097d a8bb a26f 8b01
00000170: 9848 0080 7e69 563e be8d 6d3d 7f8a 083c
00000180: 2812 0080 fe78 a43d 251d ecba bba9 883c
00000190: 8c2d 1eba c800 0080 2fb2 9dbc 5de8 2dbd
000001a0: e3cb ad3c 66a7 a9b9 1848 0080 dc86 0080
000001b0: 23e1 aebc 3b59 98bc 047e eb3c 9e70 68bc
000001c0: 6fa7 08b9 7516 0000 05c2 58bc b240 0000
000001d0: 5939 0080 bf2a 01bd b621 0080 81e6 dd3c
000001e0: e42b 343e 1110 0080 340b 0080 c900 aebc
000001f0: c237 063e c518 d3bb fabf 873d 2ea7 96b9
00000200: e0eb dd24 cfb2 1b3d aa33 b6be 20dd 17b5
00000210: 5a74 983d 3615 363d c53a d3bd e7dc ec3a
00000220: 035c e9bd 1bc7 08be 69ed a0bc a1a6 a33d
00000230: d29f 84be 0dba c23c 5307 68be 2bcc 8d3d
00000240: 0b5b 7dbe 8fb1 f83d e0fa 1f3c 898b 863e
00000250: 0527 c0be 02dd 4a3e e3e4 233d 5881 5514
00000260: f878 d0bd 4caa 9e3d 9d27 b13e dee4 a7be
00000270: cd8c c4bd 5e58 3a3e 9cd9 8fbe fc33 8f3e
00000280: 1f02 0080 cb12 0000 83d4 2abe 8212 0000
00000290: d4ac 90bc 1cec b1bc 283f c63d 2c37 253e
000002a0: cb5f c1bd be8a dbbd e234 383e 3e44 75be
000002b0: f172 533c 12aa 7b3e 5c63 513e dbcd dc94
000002c0: f223 563b 77fd e7be de1f 0000 8bbe c13e
000002d0: 55f7 c13b f490 773d 2d4d 9d3d da63 1f3e
000002e0: fc06 0080 2d27 0080 2217 c7bd 5f06 0000
000002f0: fecd 97bd f965 5cbd c8cb afbc b5bc f93c
00000300: ddac de3d 6b1f 0080 6609 0000 24a3 5813
00000310: 2b1a 0000 39d8 752d 8521 0000 0951 c33d
00000320: 6dfc 513a db76 98b9 8bd2 773c a53e e13d
00000330: 17db 343b 5f24 3b3e 993a f3bd 5fa6 b7bd
00000340: 22d1 3fbd 5c16 0000 d1c7 d6b9 ead3 f63c
00000350: d249 853d 4d44 99bd ae84 0c3e 5803 703e
00000360: 0351 843c 15b1 d1bd 7e7b 81be 3eef 3f02
00000370: ce17 0000 a0ab 0dbf 01e8 273e 76a5 3bbe
00000380: db3d bfbb 2c72 80be 7eb4 193c 7cc5 32bd
00000390: ada9 71be 4502 afa2 3bcc 63be f320 fbbd
000003a0: d6cd cc3d 2e23 af3e 8d0d 0000 7325 0000
000003b0: aa20 45bd a945 39be 3abd 9cbd c634 77bc
000003c0: 3d69 b23d e6ea b0b7 9197 1d3d 4d1e 62b8
000003d0: c927 0000 6666 9dbe 9f1b 0080 a559 653e
000003e0: 092d 1abe d9df 16b8 6028 0080 9aa1 053e
000003f0: 8a77 1e3e e37e a1bd 9e50 ebbd 337e bfbe
-1.6848e-41 0.015666846 0.02939143 1.6242e-41 -0.021638101 0.09083723 -0.022256766 0.053594977
0.03432278 4.3423e-07 -0.012536062 -0.031900954 -0.011956175 0.03441719 -0.015811322 -0.02226443
-2.8123051e-05 0.00017015258 -2.3319898e-11 -0.0037331409 -0.004902422 -0.0025650894 0.047057386 -3.3728e-41
-0.0012966723 -0.013994641 -1.3709513e-06 -0.0041463524 -0.0297887 -0.011953598 0.01430723 -0.00010617825
-1.06736e-40 5.1152e-41 0.17427632 -2.6532e-41 0.022498516 -0.027715635 -0.0076427753 -0.00059498457
0.040389955 0.02031549 -0.035350088 -0.012582141 -0.019911872 -0.024940787 0.058495793 -1.1781e-41
1.0962e-41 -0.015915666 3.3068e-41 0.083792746 -5.5074065e-07 -0.0074033714 -0.004129004 0.013875306
5.6584e-41 6.007e-42 -0.025705785 3.4721e-41 0.09122626 0.033169053 0.09265688 0.01057812
0.121615104 2.0169e-41 -4.0072e-41 2.142239e-27 3.212e-41 -1.4121e-41 2.4904e-41 -0.020895114
-0.02108476 0.010729912 0.043560028 -0.0088293785 -0.0016944783 0.026957756 0.08798406 -0.045251813
0.002163608 5.7973e-41 -3.2543676e-07 0.045661684 0.028143551 0.0009653903 -0.0016021569 -0.026073474
-7.7956974e-11 -0.025387764 -0.0051418585 5.122072e-38 -2.6042e-41 0.2093868 0.057996504 0.008333801
-6.513e-42 0.0803089 -0.0018014057 0.016682496 -0.00060340087 -2.8e-43 -0.019250004 -0.042457927
0.021215385 -0.00032358913 -2.5862e-41 -4.8378e-41 -0.021347588 -0.018597236 0.028746612 -0.014187006
-0.00013032345 8.056e-42 -0.013229852 2.3208e-41 -2.0572e-41 -0.031534906 -1.2093e-41 0.027087452
0.17594868 -5.764e-42 -4.019e-42 -0.021240609 0.13107207 -0.0064421617 0.066284135 -0.00028734788
9.624306e-17 0.038012322 -0.35586292 -5.657366e-07 0.07444067 0.044453822 -0.10313944 0.0018071205
-0.11394503 -0.13357203 -0.019644456 0.07990766 -0.25903183 0.023770357 -0.22659044 0.069237076
-0.24741761 0.121432416 0.009764403 0.26278332 -0.3752977 0.1981087 0.040013205 1.07792604e-26
-0.10179323 0.07747325 0.34600535 -0.327918 -0.09597168 0.18197772 -0.2809571 0.27969348
-7.61e-43 6.742e-42 -0.1668263 6.64e-42 -0.017660536 -0.021719031 0.09680015 0.16134328
-0.09442099 -0.10719822 0.17988923 -0.23951814 0.012905822 0.24576595 0.20448059 -2.2295519e-26
0.0032675234 -0.45310566 1.1432e-41 0.37840685 0.005919377 0.060440972 0.07680736 0.15565434
-2.506e-42 -1.4054e-41 -0.09721209 2.286e-42 -0.07412337 -0.053808186 -0.021459475 0.03048549
0.10872815 -1.127e-41 3.372e-42 2.7343467e-27 9.387e-42 1.3974649e-11 1.2025e-41 0.095369406
0.00080103317 -0.00029080253 0.015125881 0.109982766 0.0027596408 0.18275593 -0.11876411 -0.0896728
-0.046830304 8.021e-42 -0.00040966136 0.030130345 0.06508221 -0.074837305 0.13722488 0.23438776
0.01615191 -0.10238854 -0.2528953 1.4101123e-37 8.54e-42 -0.55340004 0.16397096 -0.18324837
-0.005836231 -0.25087106 0.009381412 -0.043645367 -0.23599882 -4.743625e-18 -0.22245876 -0.12262144
0.100001976 0.34206527 4.861e-42 1.3434e-41 -0.048126854 -0.1809298 -0.076532796 -0.015088266
0.08711479 -2.1090218e-05 0.038474623 -5.391082e-05 1.4272e-41 -0.30742186 -9.909e-42 0.22397478
-0.15056242 -3.597126e-05 -1.4484e-41 0.13049927 0.15475288 -0.0788553 -0.11489986 -0.3740097

convolution_3.bias f4 [32]
00000000: 6aa4 0bba 0e4e 7ab9 0e5d a53b 787c 1439
00000010: 3874 1dbb f133 faba 31e8 ba3b f866 93ba
00000020: b822 a4bb ed09 c63b aae9 8b3a 35b9 bfba
00000030: 909c 8e3b d51d 923a 4890 8e3c e36f 823b
00000040: 31f4 c9ba 4a0c 92bb 24a6 41bc 0634 193b
00000050: 97ec b7bb f58b 43bc a0df 22bb 9cf0 56bb
00000060: d0bb 92bb 00b5 3fbe b79b 7833 ebb7 a03d
00000070: 8b15 593b 36f1 bb3b 4be7 b1bb d1cc 94ba
-0.0005326929 -0.00023870936 0.0050464934 0.00014160748 -0.002402557 -0.0019088966 0.005703949 -0.0011245897
-0.0050090216 0.0060436637 0.0010674496 -0.001462734 0.00435216 0.0011147807 0.017402783 0.003980623
-0.0015407858 -0.0044570314 -0.011819396 0.0023376956 -0.0056129205 -0.011935224 -0.002485253 -0.0032797223
-0.0044779554 -0.1872139 5.788362e-08 0.078475796 0.0033124413 0.0057355417 -0.0054291836 -0.0011352544

convolution_3.lin.weight f4 [32, 64]
00000000: 7bea e7ba 8cd1 463c 7886 4ebc d76c 17ba
00000010: f30b 0000 7054 b139 116a cfbc dff8 d92f
00000020: d47a ef3c 900b 0000 31d5 913a e157 573c
00000030: ad01 f33c 1c01 8e3c 8fe7 03bc cf1a ce3a
00000040: 5511 92bb 3a23 0000 3dcf 862e 332a c6b1
00000050: ac04 780f a433 a33c 26e2 013d cf40 cfbc
00000060: e910 483c 601d 0000 adc2 763c 2848 0080
00000070: 5325 a3bc a57c 253d 4800 0000 342a e73c
00000080: 9a4a f9bb cc97 0cbc 26ee 27bd fdad afbc
00000090: b216 d5bc 3230 0339 66c1 52bc 541f 0000
000000a0: c3da 5706 bf31 5bb6 909b 323b 9081 773c
000000b0: b015 0000 3f72 3d3c fef8 0e38 e6c2 01bc
000000c0: 05ce 73bc bc94 abb9 731a 0000 77d0 0cbd
000000d0: cef4 943d 4648 783c 584c 8dbc b581 0380
000000e0: 6434 e7bc 5732 2697 e809 0080 81a5 f63a
000000f0: 9417 0080 9f21 0080 5b3b c9bc 0d94 d03b
00000100: 3d91 4ebc d376 2c3b bfa8 d53c f944 9b38
00000110: b81c 0080 d0b0 ad39 f7a4 b63c b7ae fdb1
00000120: 6af9 f23b 8913 0080 5f0c 63bb bb4e 91bc
00000130: 20a0 1cbd 463e 253b 8b85 ae3c c77a 493b
00000140: 8b7b 64ba 4a18 0080 068a a937 0e82 26b1
00000150: 127c f626 435e 7abc b76c 8cba 0761 053c
00000160: 6227 26ba 132d 0000 e73c 913c 2729 0000
00000170: f10a 773c 95ca 35bd 0819 0a02 1868 21bd
00000180: 0d5c 24bc 6e59 8b3c 430d 4b3d 3602 933c
00000190: 92a8 21bb dde0 faba fd84 bebb d911 0080
000001a0: 3527 1f06 7592 11b8 54b1 8dbc cfde 9ebc
000001b0: bd08 0000 b5c0 a9bc 4ad1 4caf cec5 b73c
000001c0: 6a4c a03b d9b6 2e3a 8f2a 0080 dc85 e33c
000001d0: b23b 4ebd 0bfc 053c 16b7 37bc e692 3b06
000001e0: b261 4a3c a70c 0080 0734 0080 2812 5e3c
000001f0: d51c 0000 b00b 0000 f2d7 073c 0945 1b3c
00000200: d85b ad3c a383 afbc e9c3 903c 0b94 f039
00000210: 0631 0080 59b2 a9b9 49a9 ea3a 6658 04b2
00000220: 3f97 d53c 8c2d 0080 77a7 8ebb 6b9c 643c
00000230: 1479 6cbd ccf9 51bc 07d7 a03b 536b e8bb
00000240: b913 f7bb 448b bfaa 7cf1 cf36 2611 7ca5
00000250: 864e 9790 0673 bebb eb9a 803c b10c f13c
00000260: f3ce 353c c014 0080 5592 383c 4b07 0080
00000270: 1218 1aba 1679 64bc ad1d 0000 3454 efbb
00000280: 78da eabc bce7 20bc f226 123d f1e9 5c3c
00000290: 9241 123b e367 39bb 876e 0fbd 3c05 0080
000002a0: 2e0e 090c 5fcb f635 36d8 fb3b 83ad 913b
000002b0: 532c 0080 c757 77bb 5655 9035 6de6 ab3b
000002c0: bdd2 ab3c 18f2 8e37 bb03 0080 0207 fab9
000002d0: c500 e2bc 7d6c 0a3d 34cb 203c 8fa7 a491
000002e0: 6c4d 06bc 769b 4b2e 960e 0000 c47b 013c
000002f0: 1706 0080 0529 0080 a265 bd3c b351 893b
00000300: 7979 c33b 7b2f 05bb 6677 bebb af91 1bb4
00000310: 1c03 0000 133d 29bb b733 16bc c030 37b1
00000320: 3a0e db3b c40f 0000 2373 093c 85d8 493c
00000330: 7907 b43c 819d 363d d99b 6abb 2a2f 123c
00000340: e423 72bc 5412 0080 14bc 5bb9 8a41 05ac
00000350: c91a 3092 c567 2aba db9f 1a3c a5c9 013c
00000360: 9e9b 8f39 a127 0080 5c0f 08bd db08 0000
00000370: 3ad9 25bc 4bac ac3b 3a0a 0000 17c5 c63c
00000380: 5f1a 80bc db7f 2ebc 3919 26bd e975 31bc
00000390: 2d62 2d3c af26 a5ba 1bf0 90bc 541b 0000
000003a0: 3149 b71c bf5d 7439 a330 093d 4468 4d3c
000003b0: 6a06 0080 667c 2e3c 7fec 87b5 bdc8 0dbc
000003c0: 717b 11bc 445b 1d39 5c03 0000 3257 2f3c
000003d0: 82a1 963c abb2 c63c 531b a83c 2a6b 7592
000003e0: 6bb0 983c ff05 0080 6f0b 0080 849d aa3b
000003f0: 9a24 0000 e11d 0000 9b83 f1ba 1b6d 86bc
-0.0017693782 0.012134921 -0.012605302 -0.0005776411 4.287e-42 0.00033822982 -0.025319131 3.9648904e-10
0.029233374 4.148e-42 0.0011126158 0.013143511 0.029663885 0.017334513 -0.008050813 0.0015724542
-0.0044576325 1.2637e-41 6.1304274e-11 -5.767356e-09 1.2228244e-29 0.019922085 0.031709813 -0.025299458
0.012211063 1.0538e-41 0.015061063 -2.5885e-41 -0.019915259 0.040402073 1.01e-43 0.028218366
-0.00760777 -0.008581113 -0.0409986 -0.021445269 -0.026011799 0.00012511088 -0.012863493 1.1238e-41
4.0597726e-35 -3.26625e-06 0.0027253367 0.015106574 7.78e-42 0.011562883 3.408733e-05 -0.007920003
-0.014880662 -0.00032726477 9.488e-42 -0.034378495 0.07273255 0.01515395 -0.017248318 -3.22037e-40
-0.028223224 -5.370103e-25 -3.554e-42 0.0018817635 -8.458e-42 -1.2061e-41 -0.024564436 0.0063653053
-0.01260787 0.0026315942 0.026081441 7.403823e-05 -1.0302e-41 0.00033128867 0.022295458 -7.383132e-09
0.0074149864 -7.008e-42 -0.0034644825 -0.017737737 -0.038238645 0.002521412 0.021303913 0.0030743347
-0.0008715919 -8.713e-42 2.0210642e-05 -2.4230107e-09 1.7103308e-15 -0.015281263 -0.0010713552 0.008140809
-0.0006338266 1.617e-41 0.017729236 1.4763e-41 0.015078292 -0.04438265 1.0145822e-37 -0.039405912
-0.010031712 0.017010417 0.049573194 0.01794539 -0.0024667126 -0.0019140501 -0.0058141933 -6.403e-42
2.993338e-35 -3.4707093e-05 -0.01729647 -0.019393353 3.135e-42 -0.020721773 -1.8628046e-10 0.022433188
0.0048919218 0.00066648197 -1.5267e-41 0.02777379 -0.0503499 0.0081777675 -0.011213085 3.5278715e-35
0.012352394 -4.539e-42 -1.8664e-41 0.0135541335 1.0343e-41 4.193e-42 0.0082912315 0.0094769085
0.021161959 -0.021425074 0.017671542 0.00045886668 -1.7586e-41 -0.0003236707 0.0017903234 -7.703511e-09
0.026073096 -1.6339e-41 -0.0043534595 0.013953309 -0.057732657 -0.012815904 0.0049084458 -0.007092872
-0.007540193 -3.402505e-13 6.197193e-06 -2.1863326e-16 -5.967998e-29 -0.0058120517 0.01569887 0.029424997
0.011096704 -7.444e-42 0.011265357 -2.616e-42 -0.00058782205 -0.013944885 1.0646e-41 -0.007303739
-0.028668627 -0.009820875 0.035681672 0.01348351 0.0022316915 -0.002829068 -0.035017516 -1.878e-42
1.0558363e-31 1.8387617e-06 0.0076856865 0.004445733 -1.59e-41 -0.0037741528 1.0753672e-06 0.0052459748
0.020974511 1.7040453e-05 -1.338e-42 -0.00047688937 -0.027588258 0.03379487 0.009814072 -2.5977904e-28
-0.00819717 4.6294933e-11 5.232e-42 0.007903043 -2.185e-42 -1.4715e-41 0.023119751 0.0041906475
0.0059654084 -0.002032249 -0.0058125732 -1.4488499e-07 1.115e-42 -0.0025823757 -0.009167603 -2.6657716e-09
0.0066850455 5.656e-42 0.008389267 0.012319689 0.02197622 0.0445838 -0.003579846 0.008922378
-0.014779065 -6.575e-42 -0.00020955532 -1.8936818e-12 -5.5568823e-28 -0.0006500448 0.009437527 0.007921611
0.0002739103 -1.4216e-41 -0.033217773 3.177e-42 -0.010122592 0.0052695624 3.669e-42 0.024263902
-0.015637575 -0.0106506 -0.040551398 -0.010831335 0.010582489 -0.001260003 -0.017692616 9.803e-42
1.2128844e-21 0.00023304576 0.03349365 0.012537066 -2.301e-42 0.010649776 -1.0127113e-06 -0.008653817
-0.008879528 0.00015006686 1.205e-42 0.010701941 0.01838756 0.024255117 0.020520842 -7.744046e-28
0.01863881 -2.151e-42 -4.102e-42 0.0052067656 1.313e-41 1.0719e-41 -0.0018426062 -0.016409447

attention.weight_matrix f4 [32, 32]
00000000: 6116 e6bb 1764 923b 170c a23b 6cb4 2abb
00000010: 35bf 763a b8e2 853b 89a9 7c3a 0804 afbb
00000020: f814 d3ba 084b 0c3b d332 1abc 25c0 50ba
00000030: 48a5 963c 66ea fcb7 06b2 163b f1cf 7b3b
00000040: fa12 a6bb 3ef6 fcb9 87d3 93bc bc23 bf3b
00000050: 345e 4bbb 7cdc d4bb 34bd 19bc 8f3b e2ba
00000060: 89e9 0bbb 6717 9a3b d8b9 2939 4701 85bb
00000070: 7c8c 5a3b 8050 e13b 036e 0fbb faff 5bbb
00000080: 0a8a 923b 7f0e d4ba 66e6 40bb 25aa fd3a
00000090: 6edc d138 d207 c6bb 737d c238 e313 e53b
000000a0: a871 11ba ad31 23bb 7a70 153c c4c3 2ebb
000000b0: 4bc7 94bc e5b0 233b fc74 53bb f044 1dbb
000000c0: 8f20 b53b a6b2 0b3a 02dc 4a3c d49d 9ebb
000000d0: c6fa 9139 3845 0d3c 9fe1 c73b 8fec 0dba
000000e0: 4a39 053b a51e 73bb 0c5c 9c3a 7398 693b
000000f0: e7ad 0dbb 0e74 cabb 555f 873a e2ee fb3a
00000100: 6c32 9c3b 796a 35bb f96f 23bc d90f f63a
00000110: 692b f83a 33d6 b53a c189 0fbc 3419 f4ba
00000120: da69 dd3b f9af e3bb 946f 8eb9 57f7 ff3b
00000130: c549 b2ba f414 56ba 51b0 923b 50d1 41bc
00000140: 9f93 0e3c 2ce2 933b 8008 d03c c278 1dbc
00000150: 7795 253c 43e0 18bb 8a0c 073c b600 d13b
00000160: 6383 d93b 59fb bfbb 6d3a c8ba 65e0 b73b
00000170: 55ad 07bc 5d9c 4fbc 0c1c 063c b458 ca3b
00000180: 8178 2cbb 4df4 fc3a 6d04 123b 26d5 49bb
00000190: e860 d33a 83c3 a03b 64f0 46bb e0e4 47bb
000001a0: 60fe 973a 2d20 203a d063 d6bb 6522 1bbb
000001b0: 5dc7 5a3c b352 82b9 312b 883b bdc8 8fb9
000001c0: 6775 20bb 18e5 ca3a f9b7 8fbc 6f13 763b
000001d0: 3011 b43a 3120 f6ba d173 82bb e4ae a2b7
000001e0: a4fa eb3a da03 f639 84a5 15ba 09ce 02bb
000001f0: 6174 c438 2fe9 993a 640c 463a 01e7 1ebb
00000200: 1e80 483a 5402 3c39 ffc4 ec3a 9710 bc3a
00000210: 2f1f c9b7 7743 22bb 4bba 213b c372 b43b
00000220: 20b5 6cbb b1eb 2ab9 3f6e 313b d64a 80bb
00000230: 44dd 63bc 4843 3f3b 07cd f3ba fe43 223a
00000240: 30ad 4c3b 4a42 64ba 692f fd3b 0dc2 9aba
00000250: af8f 5dbb a2e4 283c 1702 373a 95a4 72bb
00000260: a08b 683a dbf8 09bc 9901 163b 07a9 c33b
00000270: dc1d f439 614c 10b9 8ec3 88ba 7ef1 a4ba
00000280: 6070 463b 04c4 b5bb 9044 9e3a 444d 8b3b
00000290: f59f 39bb ed43 463b 5f8f 263b 8631 8cbb
000002a0: d118 db3a d6d2 8d3b 8647 9cbb 599b 233c
000002b0: b9b7 493b 765e 23bb 8d5f 42bb b2e3 a7ba
000002c0: b7b4 b93a 47f3 79bb 8241 233c 4247 b63a
000002d0: 7e58 a73a 662a d1bb ed9d 9f3b b6d2 f1ba
000002e0: 2990 d3b8 b1bf 95bb 140a 0339 9116 91ba
000002f0: 53fa 0f3b c33d 8d3b 9a1e b13a 6d5c ebba
00000300: da53 933a 42a4 7e37 9d70 10bc 1356 39bb
00000310: b1b4 223b 5fcc 093b b1b9 e0bb e198 eabb
00000320: 9e5a d33b 55fe 97bb 8e07 0ebb 9c3d d43b
00000330: 09d0 273c 9403 e8ba 17a2 5038 f18d 06bc
00000340: f7c4 7e3b 4810 803b e883 b9bb d4cc 44bb
00000350: 1fa1 133c 54f9 0ebc dda5 883b bde3 f33b
00000360: 9d0b b63b ad59 7d3b 5dfd 5dbb 800d 0fbb
00000370: 858d eebb fd27 07bc ff43 a43b 0032 8f3b
00000380: 4994 e6bb a216 fe3b e70a 25ba 853e 83bb
00000390: 9426 b83b e761 43bb ab71 e9bb 895f 4bbb
000003a0: 6c3e 3bba 0ae5 61bb 803b bbbb 415a 46bb
000003b0: 0fc6 f0ba b26a 2e3b 5db2 003c ba0c 0f3a
000003c0: cae1 1039 b565 e539 6b76 453c 3cef 81ba
000003d0: 9b1c cbba f827 d2bb 858b 3cbc 5d77 db3a
000003e0: 4885 2a3a 23ac 983c 992f cbb9 b5cc 54bc
000003f0: e8ed 7dbb 374c ddbb e70b 9eba b0cd 173b
-0.0070217107 0.004467498 0.004945289 -0.0026047481 0.00094126473 0.004085865 0.00096383 -0.0053410567
-0.0016104272 0.0021407027 -0.0094115315 -0.0007963202 0.01838936 -3.0149891e-05 0.0022994294 0.0038423503
-0.00506818 -0.0004824865 -0.0180452 0.0058331173 -0.0031031491 -0.0064960103 -0.009383488 -0.0017260181
-0.0021348915 0.004702497 0.00016186328 -0.00405899 0.0033347895 0.0068760514 -0.002188564 -0.0033569322
0.004472022 -0.0016178637 -0.0029434203 0.0019353075 0.00010006955 -0.0060434127 9.2740076e-05 0.006990896
-0.0005548247 -0.0024901435 0.009121055 -0.0026666978 -0.018161437 0.0024977264 -0.0032265773 -0.0023997389
0.005527563 0.000532905 0.0123815555 -0.004840592 0.00027843396 0.00862246 0.006099894 -0.0005413973
0.0020328336 -0.0037097123 0.0011929288 0.0035643845 -0.0021618546 -0.0061783856 0.0010328094 0.0019220973
0.004766753 -0.002768187 -0.009975427 0.0018773034 0.0018933836 0.001387304 -0.00876087 -0.0018623234
0.0067570033 -0.006948468 -0.00027167483 0.0078114676 -0.0013602307 -0.00081665744 0.004476585 -0.011829689
0.008702188 0.004513046 0.025394678 -0.00961131 0.010106436 -0.002332703 0.008242736 0.0063782586
0.006637977 -0.0058588204 -0.0015276201 0.0056114667 -0.008281072 -0.012671557 0.008185398 0.006175125
-0.0026316943 0.0019298882 0.002228047 -0.0030797212 0.0016126903 0.0049061193 -0.0030355686 -0.003050141
0.0011596195 0.000610831 -0.0065426603 -0.0023671624 0.013353196 -0.00024857148 0.0041555394 -0.00027424647
-0.002448404 0.0015479652 -0.01754378 0.0037548204 0.0013738032 -0.0018777904 -0.0039810915 -1.9393345e-05
0.0018003774 0.00046923646 -0.00057085627 -0.0019959232 9.3676856e-05 0.0011742468 0.0007554947 -0.0024246576
0.00076484855 0.00017929944 0.001806408 0.0014348206 -2.3975588e-05 -0.002475945 0.002467769 0.0055068447
-0.00361187 -0.00016300265 0.0027073768 -0.003915171 -0.013907734 0.002918439 -0.0018600532 0.0006189941
0.0031231157 -0.00087073876 0.007726599 -0.0011807099 -0.0033807566 0.010308417 0.00069812074 -0.0037024368
0.00088709034 -0.008421148 0.0022889136 0.0059710774 0.00046561554 -0.00013761364 -0.0010434256 -0.0012584177
0.0030279383 -0.0055470485 0.0012074877 0.004251154 -0.0028324102 0.003025289 0.0025415046 -0.0042783646
0.001671577 0.004328112 -0.0047692684 0.009985768 0.0030779673 -0.002492813 -0.0029659003 -0.0012808947
0.0014168237 -0.003813939 0.009964349 0.0013906735 0.0012767462 -0.006383228 0.004871121 -0.0018449638
-0.00010088116 -0.0045699705 0.00012496888 -0.0011069347 0.0021969273 0.004310341 0.0013513148 -0.0017956622
0.00112402 1.5177824e-05 -0.008815912 -0.0028280064 0.0024826939 0.0021026356 -0.0068580736 -0.007159338
0.0064500114 -0.004638473 -0.0021671983 0.006477071 0.010242471 -0.0017701262 4.9742022e-05 -0.008212552
0.0038874724 0.003908191 -0.0056614764 -0.0030029314 0.009010582 -0.008726437 0.004170163 0.00744292
0.0055555836 0.0038658187 -0.003387294 -0.0021828115 -0.007280054 -0.00824928 0.0050129886 0.004369974
-0.00703672 0.007754163 -0.0006295875 -0.0040052556 0.0056198332 -0.0029812993 -0.007124146 -0.0031032285
-0.00071427855 -0.0034468793 -0.00571388 -0.0030266198 -0.0018369573 0.0026613888 0.007855025 0.00054569135
0.00013817023 0.0004375406 0.012052159 -0.0009913216 -0.0015496196 -0.006413456 -0.011507873 0.0016743947
0.0006504846 0.018636769 -0.0003875464 -0.012988259 -0.003874654 -0.0067534703 -0.001205799 0.002316337

tensor_network.weight_matrix f4 [32, 32, 16]
00000000: 9eb0 0000 4a64 06bd 192f b2bc a65e 0eb0
00000010: 2719 8832 5d7c 0080 ee3a 6689 893b 4ca3
00000020: 2e48 0000 a93d 0080 cc50 db2f 4b27 0100
00000030: 5b0c 0000 4367 953c 235a 0080 2a3e 0080
00000040: 5138 0080 a79f 853c 1e55 b43c 8876 c0ae
00000050: 1a2b 2f30 8b5f 0000 5009 6d09 7b2e d5a1
00000060: 3c5f 0080 ebab 0180 12b2 7e30 a950 0080
00000070: 8686 0000 1640 8dbc 9368 0100 5403 0000
00000080: 5d79 0080 b506 b73b 39a1 4c3c 01ad 2caf
00000090: 0cb2 29b4 9d2b 0080 e120 6b07 b133 db22
000000a0: 0802 0000 96e3 0080 52dd 6caf d41e 0180
000000b0: 6b3a 0080 ff89 83bc 4206 0000 546f 0080
000000c0: 981e 0080 35c3 a7bc eb88 15bc 5fcc ac2f
000000d0: abe1 c3b2 9892 0000 a14f 4109 f6f5 8822
000000e0: b9aa 0000 6339 0000 c3db 1730 3f57 0100
000000f0: d054 0000 d9f8 993c 964d 0000 dd1a 0080
00000100: 8e12 0000 4b2d 623c f8cb d03c c123 b7ad
00000110: 9ff2 d833 e5a0 0000 5114 6909 03ba ec22
00000120: d042 0000 e12a 0000 43f6 2830 e51e 0080
00000130: 877b 0100 86b2 bdbc 9c3c 0080 4f3b 0000
00000140: c5b2 0000 4121 e63b 753d 033b d2d8 1c30
00000150: a7f2 f933 7d85 0000 cbc1 5c89 56ab c8a2
00000160: b14d 0080 642c 0100 0c9f c8b0 f250 0180
00000170: e65d 0000 3a4e eabb d54f 0000 425c 0080
00000180: aebc 0080 d8c1 3fbc fa3c d63b 8254 93ad
00000190: 550f 8ab4 0757 0000 25fd b408 1d51 a3a2
000001a0: 1f49 0000 8d8e 0000 2113 70b0 2f4d 0080
000001b0: 8980 0000 df88 a7bb 7018 0000 c62d 0080
000001c0: 1a7b 0080 38f6 3f3c ac01 053b 0f75 2e2f
000001d0: 1274 b4b3 c557 0000 1889 0d0a 67dd 1da2
000001e0: 2360 0080 b701 0180 d2a5 16b1 9abe 0000
000001f0: e31b 0080 64c5 8c3b c063 0080 5c50 0080
00000200: 8088 0000 3492 40bc ece5 b3bc 46e1 29af
00000210: 306e 1334 753d 0080 2b95 1888 d8f8 bb20
00000220: ab68 0000 8dd8 0180 3342 0f2d b926 0180
00000230: ce91 0000 9f6b e43c 26e0 0080 3603 0080
00000240: 2043 0080 23b4 cfbb 2b4f ffbb a026 9baf
00000250: 6819 37b4 f26c 0000 b6d0 a288 ec5b 1a22
00000260: cb6d 0000 6a09 0100 992d c22f 96f5 0180
00000270: 7ad7 0080 5c0b 26bb bb8f 0000 1940 0080
00000280: aeac 0000 e3a9 d9bb 1ae8 c0bc d580 9eaf
00000290: b758 27b4 9445 0000 601d ee09 11ae 0ca3
000002a0: bc26 0000 68ee 0080 4692 4230 0e60 0080
000002b0: 6701 0080 dfbb dd3c 925b 0000 c245 0080
000002c0: 3c48 0080 4518 3bbc 0e52 bbbb f0c8 6c2f
000002d0: 3c1a 1535 1638 0000 d172 088a a3c9 9c22
000002e0: 2d6c 0000 5e43 0000 6c53 e1ae 3443 0000
000002f0: 8b30 0080 6500 00bc a23c 0080 d938 0000
00000300: ce42 0080 2e23 82bc c17e a9bc 225e 1ab1
00000310: c165 fb33 ce12 0000 ff6b 9489 e05d a5a3
00000320: e60f 0000 0d30 0000 c64e 3431 8888 0080
00000330: dc91 0000 606d ed3a 4d4b 0080 2e2f 0080
00000340: 0771 0000 be88 0f3c 99f0 ca3c 84ab c5af
00000350: c93a 8fb3 465f 0000 b40b 3209 1fac d722
00000360: 2b4c 0000 0894 0080 7d52 4aaf 29a0 0080
00000370: 2ba9 0080 a626 fdbc 970a 0000 b548 0000
00000380: 975e 0080 fc33 85ba 84f3 02bd e723 842d
00000390: 385b 06b4 c40b 0000 60f9 9b09 72d8 60a1
000003a0: 7e39 0080 431e 0080 5cbd 1fb0 d064 0080
000003b0: a828 0000 8666 8d3c 3189 0080 2a2f 0000
000003c0: a670 0080 7b94 91bb ec97 333c 7c17 3b2f
000003d0: f76b 5fb4 dd1d 0000 c775 fc08 5cf4 ab21
000003e0: 5b56 0080 3641 0280 2174 d1ae 4e82 0000
000003f0: b80b 0080 76cd 5bbc d390 0080 4f1f 0080
6.3358e-41 -0.032810487 -0.021750974 -5.17938e-10 1.5843922e-08 -4.4613e-41 -2.7712952e-33 -1.1071469e-17
2.5893e-41 -2.212e-41 3.9893278e-10 1.05931e-40 4.432e-42 0.018237716 -3.2335e-41 -2.23e-41
-2.0203e-41 0.01631148 0.022013243 -8.7522045e-11 6.372588e-10 3.4274e-41 2.8532216e-33 -1.4445745e-18
-3.4164e-41 -1.53508e-40 9.2657715e-10 -2.8935e-41 4.8258e-41 -0.017242473 1.2935e-40 1.194e-42
-4.3537e-41 0.0055855163 0.01248961 -1.5704772e-10 -1.5804125e-07 -1.5645e-41 1.7689097e-34 5.94148e-18
7.29e-43 -8.1642e-41 -2.1542704e-10 -1.02895e-40 -2.0956e-41 -0.016057013 2.245e-42 -3.9937e-41
-1.0975e-41 -0.020478824 -0.009126882 3.1431832e-10 -2.280361e-08 5.2588e-41 2.3268971e-33 3.7123295e-18
6.1244e-41 2.0586e-41 5.524578e-10 1.23133e-40 3.0425e-41 0.018795418 2.7833e-41 -9.637e-42
6.656e-42 0.013804744 0.025487885 -2.082057e-11 1.0102416e-07 5.7718e-41 2.8055908e-33 6.4164876e-18
2.3968e-41 1.5382e-41 6.1468003e-10 -1.1083e-41 1.36149e-40 -0.023156416 -2.1743e-41 2.1276e-41
6.413e-41 0.007023007 0.0020025645 5.706059e-10 1.1639104e-07 4.7887e-41 -2.6572658e-33 -5.4391518e-18
-2.787e-41 1.0776e-40 -1.4597119e-09 -1.20873e-40 3.3684e-41 -0.0071504386 2.8638e-41 -3.3096e-41
-6.7686e-41 -0.011703931 0.0065380307 -1.6749494e-11 -2.571566e-07 3.122e-41 1.089287e-33 -4.426712e-18
2.6231e-41 5.1138e-41 -8.7338675e-10 -2.7688e-41 4.611e-41 -0.005112752 8.767e-42 -1.642e-41
-4.416e-41 0.011716418 0.0020295186 1.5866795e-10 -8.403016e-08 3.1486e-41 6.8146875e-33 -2.1394677e-18
-3.4487e-41 -9.245e-41 -2.192213e-09 6.8375e-41 -1.0004e-41 0.0042959917 -3.5784e-41 -2.8828e-41
4.8967e-41 -0.011753608 -0.021960221 -1.5450494e-10 1.3730528e-07 -2.2047e-41 -4.591618e-34 3.1843703e-19
3.7548e-41 -1.69519e-40 8.143308e-12 -1.05727e-40 5.2305e-41 0.027883349 -8.041e-41 -1.152e-42
-2.408e-41 -0.0063386126 -0.00779142 -2.822178e-10 -1.7052446e-07 3.9082e-41 -9.799088e-34 2.0919555e-18
3.9386e-41 9.5213e-41 3.5320794e-10 -1.79935e-40 -7.7298e-41 -0.002533636 5.1561e-41 -2.2994e-41
6.1946e-41 -0.0066425665 -0.023548175 -2.8831573e-10 -1.5585361e-07 2.496e-41 5.732404e-33 -7.626275e-18
1.3895e-41 -8.5524e-41 7.0784656e-10 -3.4458e-41 -5.03e-43 0.027067123 3.2849e-41 -2.5024e-41
-2.5913e-41 -0.0114193605 -0.005716569 2.1535462e-10 5.5545e-07 2.012e-41 -6.5697564e-33 4.2497376e-18
3.8806e-41 2.4167e-41 -1.0246634e-10 2.4108e-41 -1.7414e-41 -0.007812594 -2.1751e-41 2.0393e-41
-2.3965e-41 -0.015885916 -0.020690324 -2.2463458e-09 1.1706607e-07 6.746e-42 -3.5731263e-33 -1.7929093e-17
5.703e-42 1.7237e-41 2.6238225e-09 -4.8978e-41 5.2324e-41 0.0018114261 -2.7013e-41 -1.6925e-41
4.0547e-41 0.008760629 0.024772929 -3.595596e-10 -6.6696494e-08 3.4178e-41 2.1431473e-33 5.8458107e-18
2.7324e-41 -5.3104e-41 -1.8401099e-10 -5.7455e-41 -6.0686e-41 -0.030902218 3.799e-42 2.6082e-41
-3.3932e-41 -0.0010162587 -0.031970516 1.5022606e-11 -1.2512908e-07 4.221e-42 3.7549404e-33 -7.6180615e-19
-2.0624e-41 -1.0856e-41 -5.811296e-10 -3.6165e-41 1.4585e-41 0.017260801 -4.9215e-41 1.6919e-41
-4.041e-41 -0.004442749 0.010961514 1.7015894e-10 -2.0807771e-07 1.0713e-41 1.5194388e-33 1.1652092e-18
-3.0979e-41 -2.07064e-40 -9.524848e-11 4.6745e-41 -4.204e-42 -0.013415685 -5.1953e-41 -1.1231e-41

tensor_network.weight_matrix_block f4 [16, 64]
00000000: 4408 0080 0639 0080 2c0d 0080 a346 0000
00000010: ba10 0080 2a30 0000 7105 0080 1e0a 0080
00000020: 9c43 0000 6d19 0080 7720 0000 3877 3f90
00000030: 0ae1 ef8c e319 0080 7875 0800 8942 0000
00000040: 9e06 0000 3e09 0000 bc93 7027 960c 0080
00000050: c73e 0080 0764 3f85 551c 0080 d514 0000
00000060: db1d 0080 d186 5734 2931 0080 09e9 19a6
00000070: 5811 0000 323a 0080 c606 0080 d208 0000
00000080: e932 0000 e101 0080 1027 0080 2533 0000
00000090: a92f 0000 6a2d 0080 3202 0000 b530 0000
000000a0: b829 0080 d209 0000 5d0d 0000 350b 0000
000000b0: 5500 0000 6233 0080 fd25 0000 0713 0000
000000c0: a82a 0000 c021 0080 98b6 100a 9203 0080
000000d0: 192a 0080 db21 0080 a024 0080 2701 0080
000000e0: 8517 0080 ee05 9536 0f1f 0080 5d14 19ab
000000f0: 1908 0000 0539 0080 9f19 0080 7426 0000
00000100: a3b3 18bc 4059 5b3a 6a89 1abb 1f51 8b3c
00000110: 0b16 ec3c addb 06bd 7f32 4f3c b209 5bbd
00000120: 9b64 443c f42d 023c 0086 12bc bcee a73e
00000130: 89eb d5bd c00a 413c 2b04 93be 4665 e4bc
00000140: b86f 3e3b 3005 a03c 1d22 4e3e e4b7 86bc
00000150: 9c01 a73c d4c6 75be 52d6 2ebc 4b76 ab3b
00000160: 47f4 1fbc fb7f 8f3d 7423 d33a a236 22be
00000170: ad9a f0ba e631 9cbc a576 b0bb db8a 8e3d
00000180: be82 bc3c d9c2 db3b 7485 3ebd 39b9 a1bb
00000190: 8b68 64bd 7bc2 8bbe 785b babb 4263 ae3c
000001a0: 6d8f 283d 2aa4 f4bb 495d c83d e01b 0c3f
000001b0: e59a acbc c925 05bd 3541 49bf 6284 f73c
000001c0: 248e 173c a289 b5bc 56b6 993e 0fb2 693d
000001d0: 0ea0 2ebb 66c3 5b3e dcc6 913c 5d38 d2bb
000001e0: 581f d0bd 66f9 10bf 6b44 45bc 7f55 e93e
000001f0: 574b d03b 0d11 963c b74e 2b3b fac7 93bc
00000200: f3d0 b23c 1b9b d1bc b48c 13bd c4df a93c
00000210: 9193 13bd 7911 aa3d 20fa 733c 02cf 023e
00000220: 6c10 ce3c 6aae cc3b fb6b c53d 6778 ffbe
00000230: 6f21 993e f832 a3bc a778 203f 208b 3cbc
00000240: 307d 433b 6267 24bc a46c 5dbe d6ae 1fbb
00000250: 4491 793c e939 d53d d9b7 cb3c 8a2b 783c
00000260: 6971 23bd 4aab c83e 6b81 c2bc 35fd f5be
00000270: 2c45 323b aca1 f3bc cb61 383c 1f32 62ba
00000280: 9224 093c 14d6 343c f54d 2cba faf3 4b3b
00000290: 9d55 fdba 81de 16be 5beb 26bc ade1 9f3c
000002a0: 9305 e13c 8f5e f9bb dcfb b0bd 855e b1bd
000002b0: 5b16 003e 75c7 b03b b071 d0be fb18 dcbb
000002c0: bb9a 8f3b 3a74 ff3b bbe6 16bd ef51 263d
000002d0: f7e4 133c d703 233e 03a6 4abb 181d a33b
000002e0: 6488 173b ceb1 6abf f82e 1db9 9c6d 2a3f
000002f0: 3888 49bb 54f9 aabc 581a 3a3a dd4f 41bd
00000300: 8e7f 63ba 9b2f 313a ae5e 4cba 0afb fdae
00000310: f3e8 a1b1 3797 fbb8 eea7 0535 5453 db39
00000320: 91a1 1230 6a52 dcba a9d2 6b36 3ab5 e7bb
00000330: 1ea3 afbc c195 feb2 a5a4 803c 8d94 09b4
00000340: f03b 6234 bcf1 da2f 92af 46bc 7453 2ab4
00000350: a5ce 16b0 5251 623c abc8 3eba 4878 8ab2
00000360: 3e0a 96b1 401a db3c dc38 8b39 4e18 c7bc
00000370: 28ac 04b2 8b10 4a39 08c0 c23a 8747 36b7
00000380: 1ad3 95b8 f373 133a 823d 87ba da99 eeb6
00000390: 857f d0b1 892a c1ba 07b9 0c35 ab56 15b9
000003a0: 7628 f4b1 9a4d c4ba 0685 0dbb 82b4 bdba
000003b0: b91d 29bd bcf7 abb1 70d5 4a3c 7cee 51b7
000003c0: 6eba 5337 0222 09b0 641a 04bd ecb2 85b6
000003d0: e63b 0630 3be7 423c 8371 f8b9 6c2a 2b38
000003e0: ad3f 93b4 0f1d ec3c 1483 f139 e464 d3bc
000003f0: 8921 0031 7d5a d939 55ad d43a f4f3 8cb8
-2.965e-42 -2.0456e-41 -4.725e-42 2.534e-41 -6e-42 1.7278e-41 -1.952e-42 -3.63e-42
2.4254e-41 -9.121e-42 1.1646e-41 -3.775995e-29 -3.695922e-31 -9.286e-42 7.76824e-40 2.3868e-41
2.374e-42 3.315e-42 3.3386778e-15 -4.515e-42 -2.252e-41 -8.999149e-36 -1.0164e-41 7.473e-42
-1.071e-41 2.0072481e-07 -1.7635e-41 -5.339836e-16 6.222e-42 -2.0877e-41 -2.43e-42 3.164e-42
1.8263e-41 -6.74e-43 -1.4013e-41 1.8347e-41 1.7097e-41 -1.6291e-41 7.88e-43 1.7473e-41
-1.4966e-41 3.523e-42 4.794e-42 4.02e-42 1.19e-43 -1.8433e-41 1.3628e-41 6.826e-42
1.5302e-41 -1.2107e-41 6.96769e-33 -1.281e-42 -1.5102e-41 -1.2145e-41 -1.3139e-41 -4.13e-43
-8.437e-42 4.4412363e-06 -1.1142e-41 -5.438478e-13 2.905e-42 -2.0455e-41 -9.191e-42 1.3794e-41
-0.0093201725 0.00083674863 -0.002358044 0.017006455 0.028819105 -0.032924343 0.012646317 -0.053476043
0.011986877 0.007945526 -0.008943081 0.32799327 -0.104453154 0.011782348 -0.28714117 -0.027880322
0.0029058289 0.019533724 0.201302 -0.016445108 0.02038651 -0.24001628 -0.010671215 0.0052326075
-0.00976283 0.07006832 0.0016108588 -0.15841153 -0.0018356644 -0.019066762 -0.0053852373 0.06960078
0.023011561 0.0067065773 -0.04651399 -0.0049354103 -0.055763762 -0.27296814 -0.0056871735 0.021287564
0.041152406 -0.007465859 0.09783418 0.54730034 -0.021069953 -0.032506738 -0.78615123 0.030214492
0.009250198 -0.022160355 0.30021924 0.057054576 -0.0026645693 0.21461257 0.017795019 -0.0064154104
-0.10162228 -0.5663055 -0.012040238 0.4557304 0.0063566375 0.018318677 0.0026139447 -0.018039692
0.02182815 -0.025586655 -0.036022857 0.020736583 -0.036029402 0.08304114 0.014891177 0.1277428
0.025154315 0.0062463777 0.09639736 -0.49896547 0.2990832 -0.019921765 0.626841 -0.011507779
0.0029829256 -0.010034414 -0.21623474 -0.0024365685 0.015232388 0.10411436 0.024867939 0.015147099
-0.03990308 0.39193183 -0.023743352 -0.48044744 0.0027201874 -0.029740177 0.011253784 -0.00086286844
0.008370535 0.011037368 -0.0006572896 0.0031120763 -0.0019327883 -0.14733316 -0.010187949 0.01951679
0.027468478 -0.007610149 -0.08641788 -0.08660606 0.12508528 0.005394871 -0.40711737 -0.006716845
0.004382459 0.0077958377 -0.036841135 0.04060548 0.009026757 0.15919434 -0.0030921705 0.0049778335
0.0023122067 -0.9167756 -0.00014990184 0.665735 -0.0030751359 -0.020870842 0.00070992624 -0.047195304
-0.000867837 0.0006759108 -0.0007796091 -1.15497015e-10 -4.7122e-09 -0.000119967786 4.979073e-07 0.0004183302
5.334409e-10 -0.0016809229 3.514035e-06 -0.0070711644 -0.021440085 -2.9637592e-08 0.015703509 -1.2813162e-07
2.1069695e-07 3.9825732e-10 -0.01212682 -1.5862844e-07 -5.486334e-10 0.013813334 -0.00072778267 -1.6120012e-08
-4.366739e-09 0.026745915 0.0002655451 -0.024303582 -7.722555e-09 0.00019270384 0.0014858255 -1.0864699e-05
-7.1441944e-05 0.0005624883 -0.0010318013 -7.1108634e-06 -6.068094e-09 -0.0014737408 5.2423314e-07 -0.00014242034
-7.1059345e-09 -0.001497674 -0.002159418 -0.0014473351 -0.04128811 -5.004919e-09 0.012379989 -1.2512897e-05
1.2619987e-05 -4.988864e-10 -0.03225173 -3.984538e-06 4.8834037e-10 0.01189595 -0.0004738682 4.0809085e-05
-2.7427214e-07 0.02882245 0.00046064763 -0.025804944 1.8645514e-09 0.00041456884 0.0016225973 -6.72116e-05

tensor_network.bias f4 [16, 1]
00000000: f17a 0380 9cc5 843f c653 653e 4f05 bebc
00000010: 8274 07b5 0867 d5ba acc9 59b7 50a9 c026
00000020: 5107 6bb5 b552 bcb3 d603 8fb3 2082 07b8
00000030: a120 48b9 8ca1 623f f6bb 9cba 1763 8dbb
-3.1961e-40 1.0372806 0.22395238 -0.02319589 -5.046096e-07 -0.0016281316 -1.2981163e-05 1.3368569e-15
-8.755497e-07 -8.7694765e-08 -6.659654e-08 -3.2307697e-05 -0.00019085642 0.8852775 -0.0011957872 -0.004314791
